{"format": "graph-model", "generatedBy": "2.17.0", "convertedBy": "TensorFlow.js Converter v4.22.0", "signature": {"inputs": {"args_0": {"name": "args_0:0", "dtype": "DT_FLOAT", "tensorShape": {"dim": [{"size": "-1"}, {"size": "540"}, {"size": "1024"}, {"size": "3"}]}}}, "outputs": {"output_0": {"name": "Identity:0", "dtype": "DT_FLOAT", "tensorShape": {"dim": [{"size": "-1"}, {"size": "2160"}, {"size": "4096"}, {"size": "3"}]}}}}, "modelTopology": {"node": [{"name": "StatefulPartitionedCall/r2_net_1/rrfb_3_1/esa_3_1/conv2d_22_1/convolution/ReadVariableOp", "op": "Const", "attr": {"value": {"tensor": {"dtype": "DT_FLOAT", "tensorShape": {"dim": [{"size": "3"}, {"size": "3"}, {"size": "16"}, {"size": "16"}]}}}, "dtype": {"type": "DT_FLOAT"}}}, {"name": "StatefulPartitionedCall/r2_net_1/rrfb_3_1/esa_3_1/conv2d_22_1/Squeeze", "op": "Const", "attr": {"dtype": {"type": "DT_FLOAT"}, "value": {"tensor": {"dtype": "DT_FLOAT", "tensorShape": {"dim": [{"size": "16"}]}}}}}, {"name": "StatefulPartitionedCall/r2_net_1/rrfb_3_1/esa_3_1/conv2d_23_1/convolution/ReadVariableOp", "op": "Const", "attr": {"dtype": {"type": "DT_FLOAT"}, "value": {"tensor": {"dtype": "DT_FLOAT", "tensorShape": {"dim": [{"size": "3"}, {"size": "3"}, {"size": "16"}, {"size": "16"}]}}}}}, {"name": "StatefulPartitionedCall/r2_net_1/rrfb_3_1/esa_3_1/conv2d_23_1/Squeeze", "op": "Const", "attr": {"value": {"tensor": {"dtype": "DT_FLOAT", "tensorShape": {"dim": [{"size": "16"}]}}}, "dtype": {"type": "DT_FLOAT"}}}, {"name": "StatefulPartitionedCall/r2_net_1/rrfb_3_1/esa_3_1/strided_slice/stack", "op": "Const", "attr": {"value": {"tensor": {"dtype": "DT_INT32", "tensorShape": {"dim": [{"size": "1"}]}}}, "dtype": {"type": "DT_INT32"}}}, {"name": "StatefulPartitionedCall/r2_net_1/rrfb_3_1/esa_3_1/strided_slice/stack_1", "op": "Const", "attr": {"value": {"tensor": {"dtype": "DT_INT32", "tensorShape": {"dim": [{"size": "1"}]}}}, "dtype": {"type": "DT_INT32"}}}, {"name": "StatefulPartitionedCall/r2_net_1/rrfb_3_1/esa_3_1/strided_slice/stack_2", "op": "Const", "attr": {"value": {"tensor": {"dtype": "DT_INT32", "tensorShape": {"dim": [{"size": "1"}]}}}, "dtype": {"type": "DT_INT32"}}}, {"name": "StatefulPartitionedCall/r2_net_1/rrfb_3_1/esa_3_1/strided_slice_1/stack", "op": "Const", "attr": {"value": {"tensor": {"dtype": "DT_INT32", "tensorShape": {"dim": [{"size": "1"}]}}}, "dtype": {"type": "DT_INT32"}}}, {"name": "StatefulPartitionedCall/r2_net_1/rrfb_3_1/esa_3_1/strided_slice_1/stack_1", "op": "Const", "attr": {"value": {"tensor": {"dtype": "DT_INT32", "tensorShape": {"dim": [{"size": "1"}]}}}, "dtype": {"type": "DT_INT32"}}}, {"name": "StatefulPartitionedCall/r2_net_1/rrfb_3_1/esa_3_1/strided_slice_1/stack_2", "op": "Const", "attr": {"dtype": {"type": "DT_INT32"}, "value": {"tensor": {"dtype": "DT_INT32", "tensorShape": {"dim": [{"size": "1"}]}}}}}, {"name": "StatefulPartitionedCall/r2_net_1/rrfb_2_1/esa_2_1/conv2d_16_1/convolution/ReadVariableOp", "op": "Const", "attr": {"dtype": {"type": "DT_FLOAT"}, "value": {"tensor": {"dtype": "DT_FLOAT", "tensorShape": {"dim": [{"size": "3"}, {"size": "3"}, {"size": "16"}, {"size": "16"}]}}}}}, {"name": "StatefulPartitionedCall/r2_net_1/rrfb_2_1/esa_2_1/conv2d_16_1/Squeeze", "op": "Const", "attr": {"dtype": {"type": "DT_FLOAT"}, "value": {"tensor": {"dtype": "DT_FLOAT", "tensorShape": {"dim": [{"size": "16"}]}}}}}, {"name": "StatefulPartitionedCall/r2_net_1/rrfb_2_1/esa_2_1/conv2d_17_1/convolution/ReadVariableOp", "op": "Const", "attr": {"value": {"tensor": {"dtype": "DT_FLOAT", "tensorShape": {"dim": [{"size": "3"}, {"size": "3"}, {"size": "16"}, {"size": "16"}]}}}, "dtype": {"type": "DT_FLOAT"}}}, {"name": "StatefulPartitionedCall/r2_net_1/rrfb_2_1/esa_2_1/conv2d_17_1/Squeeze", "op": "Const", "attr": {"value": {"tensor": {"dtype": "DT_FLOAT", "tensorShape": {"dim": [{"size": "16"}]}}}, "dtype": {"type": "DT_FLOAT"}}}, {"name": "StatefulPartitionedCall/r2_net_1/rrfb_2_1/esa_2_1/strided_slice/stack", "op": "Const", "attr": {"value": {"tensor": {"dtype": "DT_INT32", "tensorShape": {"dim": [{"size": "1"}]}}}, "dtype": {"type": "DT_INT32"}}}, {"name": "StatefulPartitionedCall/r2_net_1/rrfb_2_1/esa_2_1/strided_slice/stack_1", "op": "Const", "attr": {"dtype": {"type": "DT_INT32"}, "value": {"tensor": {"dtype": "DT_INT32", "tensorShape": {"dim": [{"size": "1"}]}}}}}, {"name": "StatefulPartitionedCall/r2_net_1/rrfb_2_1/esa_2_1/strided_slice/stack_2", "op": "Const", "attr": {"dtype": {"type": "DT_INT32"}, "value": {"tensor": {"dtype": "DT_INT32", "tensorShape": {"dim": [{"size": "1"}]}}}}}, {"name": "StatefulPartitionedCall/r2_net_1/rrfb_2_1/esa_2_1/strided_slice_1/stack", "op": "Const", "attr": {"dtype": {"type": "DT_INT32"}, "value": {"tensor": {"dtype": "DT_INT32", "tensorShape": {"dim": [{"size": "1"}]}}}}}, {"name": "StatefulPartitionedCall/r2_net_1/rrfb_2_1/esa_2_1/strided_slice_1/stack_1", "op": "Const", "attr": {"value": {"tensor": {"dtype": "DT_INT32", "tensorShape": {"dim": [{"size": "1"}]}}}, "dtype": {"type": "DT_INT32"}}}, {"name": "StatefulPartitionedCall/r2_net_1/rrfb_2_1/esa_2_1/strided_slice_1/stack_2", "op": "Const", "attr": {"value": {"tensor": {"dtype": "DT_INT32", "tensorShape": {"dim": [{"size": "1"}]}}}, "dtype": {"type": "DT_INT32"}}}, {"name": "StatefulPartitionedCall/r2_net_1/rrfb_1_2/esa_1_1/conv2d_10_1/convolution/ReadVariableOp", "op": "Const", "attr": {"value": {"tensor": {"dtype": "DT_FLOAT", "tensorShape": {"dim": [{"size": "3"}, {"size": "3"}, {"size": "16"}, {"size": "16"}]}}}, "dtype": {"type": "DT_FLOAT"}}}, {"name": "StatefulPartitionedCall/r2_net_1/rrfb_1_2/esa_1_1/conv2d_10_1/Squeeze", "op": "Const", "attr": {"value": {"tensor": {"dtype": "DT_FLOAT", "tensorShape": {"dim": [{"size": "16"}]}}}, "dtype": {"type": "DT_FLOAT"}}}, {"name": "StatefulPartitionedCall/r2_net_1/rrfb_1_2/esa_1_1/conv2d_11_1/convolution/ReadVariableOp", "op": "Const", "attr": {"value": {"tensor": {"dtype": "DT_FLOAT", "tensorShape": {"dim": [{"size": "3"}, {"size": "3"}, {"size": "16"}, {"size": "16"}]}}}, "dtype": {"type": "DT_FLOAT"}}}, {"name": "StatefulPartitionedCall/r2_net_1/rrfb_1_2/esa_1_1/conv2d_11_1/Squeeze", "op": "Const", "attr": {"dtype": {"type": "DT_FLOAT"}, "value": {"tensor": {"dtype": "DT_FLOAT", "tensorShape": {"dim": [{"size": "16"}]}}}}}, {"name": "StatefulPartitionedCall/r2_net_1/rrfb_1_2/esa_1_1/strided_slice/stack", "op": "Const", "attr": {"value": {"tensor": {"dtype": "DT_INT32", "tensorShape": {"dim": [{"size": "1"}]}}}, "dtype": {"type": "DT_INT32"}}}, {"name": "StatefulPartitionedCall/r2_net_1/rrfb_1_2/esa_1_1/strided_slice/stack_1", "op": "Const", "attr": {"dtype": {"type": "DT_INT32"}, "value": {"tensor": {"dtype": "DT_INT32", "tensorShape": {"dim": [{"size": "1"}]}}}}}, {"name": "StatefulPartitionedCall/r2_net_1/rrfb_1_2/esa_1_1/strided_slice/stack_2", "op": "Const", "attr": {"value": {"tensor": {"dtype": "DT_INT32", "tensorShape": {"dim": [{"size": "1"}]}}}, "dtype": {"type": "DT_INT32"}}}, {"name": "StatefulPartitionedCall/r2_net_1/rrfb_1_2/esa_1_1/strided_slice_1/stack", "op": "Const", "attr": {"dtype": {"type": "DT_INT32"}, "value": {"tensor": {"dtype": "DT_INT32", "tensorShape": {"dim": [{"size": "1"}]}}}}}, {"name": "StatefulPartitionedCall/r2_net_1/rrfb_1_2/esa_1_1/strided_slice_1/stack_1", "op": "Const", "attr": {"value": {"tensor": {"dtype": "DT_INT32", "tensorShape": {"dim": [{"size": "1"}]}}}, "dtype": {"type": "DT_INT32"}}}, {"name": "StatefulPartitionedCall/r2_net_1/rrfb_1_2/esa_1_1/strided_slice_1/stack_2", "op": "Const", "attr": {"dtype": {"type": "DT_INT32"}, "value": {"tensor": {"dtype": "DT_INT32", "tensorShape": {"dim": [{"size": "1"}]}}}}}, {"name": "StatefulPartitionedCall/r2_net_1/rrfb_1/esa_1/conv2d_4_1/convolution/ReadVariableOp", "op": "Const", "attr": {"dtype": {"type": "DT_FLOAT"}, "value": {"tensor": {"dtype": "DT_FLOAT", "tensorShape": {"dim": [{"size": "3"}, {"size": "3"}, {"size": "16"}, {"size": "16"}]}}}}}, {"name": "StatefulPartitionedCall/r2_net_1/rrfb_1/esa_1/conv2d_4_1/Squeeze", "op": "Const", "attr": {"dtype": {"type": "DT_FLOAT"}, "value": {"tensor": {"dtype": "DT_FLOAT", "tensorShape": {"dim": [{"size": "16"}]}}}}}, {"name": "StatefulPartitionedCall/r2_net_1/rrfb_1/esa_1/conv2d_5_1/convolution/ReadVariableOp", "op": "Const", "attr": {"dtype": {"type": "DT_FLOAT"}, "value": {"tensor": {"dtype": "DT_FLOAT", "tensorShape": {"dim": [{"size": "3"}, {"size": "3"}, {"size": "16"}, {"size": "16"}]}}}}}, {"name": "StatefulPartitionedCall/r2_net_1/rrfb_1/esa_1/conv2d_5_1/Squeeze", "op": "Const", "attr": {"dtype": {"type": "DT_FLOAT"}, "value": {"tensor": {"dtype": "DT_FLOAT", "tensorShape": {"dim": [{"size": "16"}]}}}}}, {"name": "StatefulPartitionedCall/r2_net_1/rrfb_1/esa_1/strided_slice/stack", "op": "Const", "attr": {"dtype": {"type": "DT_INT32"}, "value": {"tensor": {"dtype": "DT_INT32", "tensorShape": {"dim": [{"size": "1"}]}}}}}, {"name": "StatefulPartitionedCall/r2_net_1/rrfb_1/esa_1/strided_slice/stack_1", "op": "Const", "attr": {"dtype": {"type": "DT_INT32"}, "value": {"tensor": {"dtype": "DT_INT32", "tensorShape": {"dim": [{"size": "1"}]}}}}}, {"name": "StatefulPartitionedCall/r2_net_1/rrfb_1/esa_1/strided_slice/stack_2", "op": "Const", "attr": {"value": {"tensor": {"dtype": "DT_INT32", "tensorShape": {"dim": [{"size": "1"}]}}}, "dtype": {"type": "DT_INT32"}}}, {"name": "StatefulPartitionedCall/r2_net_1/rrfb_1/esa_1/strided_slice_1/stack", "op": "Const", "attr": {"value": {"tensor": {"dtype": "DT_INT32", "tensorShape": {"dim": [{"size": "1"}]}}}, "dtype": {"type": "DT_INT32"}}}, {"name": "StatefulPartitionedCall/r2_net_1/rrfb_1/esa_1/strided_slice_1/stack_1", "op": "Const", "attr": {"value": {"tensor": {"dtype": "DT_INT32", "tensorShape": {"dim": [{"size": "1"}]}}}, "dtype": {"type": "DT_INT32"}}}, {"name": "StatefulPartitionedCall/r2_net_1/rrfb_1/esa_1/strided_slice_1/stack_2", "op": "Const", "attr": {"value": {"tensor": {"dtype": "DT_INT32", "tensorShape": {"dim": [{"size": "1"}]}}}, "dtype": {"type": "DT_INT32"}}}, {"name": "StatefulPartitionedCall/r2_net_1/rrfb_1/conv2d_1_1/convolution/ReadVariableOp", "op": "Const", "attr": {"value": {"tensor": {"dtype": "DT_FLOAT", "tensorShape": {"dim": [{"size": "3"}, {"size": "3"}, {"size": "48"}, {"size": "48"}]}}}, "dtype": {"type": "DT_FLOAT"}}}, {"name": "StatefulPartitionedCall/r2_net_1/rrfb_1/conv2d_1_1/Squeeze", "op": "Const", "attr": {"dtype": {"type": "DT_FLOAT"}, "value": {"tensor": {"dtype": "DT_FLOAT", "tensorShape": {"dim": [{"size": "48"}]}}}}}, {"name": "StatefulPartitionedCall/r2_net_1/rrfb_1/conv2d_2_1/convolution/ReadVariableOp", "op": "Const", "attr": {"dtype": {"type": "DT_FLOAT"}, "value": {"tensor": {"dtype": "DT_FLOAT", "tensorShape": {"dim": [{"size": "3"}, {"size": "3"}, {"size": "48"}, {"size": "48"}]}}}}}, {"name": "StatefulPartitionedCall/r2_net_1/rrfb_1/conv2d_2_1/Squeeze", "op": "Const", "attr": {"dtype": {"type": "DT_FLOAT"}, "value": {"tensor": {"dtype": "DT_FLOAT", "tensorShape": {"dim": [{"size": "48"}]}}}}}, {"name": "StatefulPartitionedCall/r2_net_1/rrfb_1/esa_1/conv2d_3_1/convolution/ReadVariableOp", "op": "Const", "attr": {"value": {"tensor": {"dtype": "DT_FLOAT", "tensorShape": {"dim": [{"size": "1"}, {"size": "1"}, {"size": "48"}, {"size": "16"}]}}}, "dtype": {"type": "DT_FLOAT"}}}, {"name": "StatefulPartitionedCall/r2_net_1/rrfb_1/esa_1/conv2d_3_1/Squeeze", "op": "Const", "attr": {"value": {"tensor": {"dtype": "DT_FLOAT", "tensorShape": {"dim": [{"size": "16"}]}}}, "dtype": {"type": "DT_FLOAT"}}}, {"name": "StatefulPartitionedCall/r2_net_1/rrfb_1/esa_1/conv2d_6_1/convolution/ReadVariableOp", "op": "Const", "attr": {"value": {"tensor": {"dtype": "DT_FLOAT", "tensorShape": {"dim": [{"size": "1"}, {"size": "1"}, {"size": "16"}, {"size": "48"}]}}}, "dtype": {"type": "DT_FLOAT"}}}, {"name": "StatefulPartitionedCall/r2_net_1/rrfb_1/esa_1/conv2d_6_1/Squeeze", "op": "Const", "attr": {"dtype": {"type": "DT_FLOAT"}, "value": {"tensor": {"dtype": "DT_FLOAT", "tensorShape": {"dim": [{"size": "48"}]}}}}}, {"name": "StatefulPartitionedCall/r2_net_1/rrfb_1_2/conv2d_7_1/convolution/ReadVariableOp", "op": "Const", "attr": {"dtype": {"type": "DT_FLOAT"}, "value": {"tensor": {"dtype": "DT_FLOAT", "tensorShape": {"dim": [{"size": "3"}, {"size": "3"}, {"size": "48"}, {"size": "48"}]}}}}}, {"name": "StatefulPartitionedCall/r2_net_1/rrfb_1_2/conv2d_7_1/Squeeze", "op": "Const", "attr": {"value": {"tensor": {"dtype": "DT_FLOAT", "tensorShape": {"dim": [{"size": "48"}]}}}, "dtype": {"type": "DT_FLOAT"}}}, {"name": "StatefulPartitionedCall/r2_net_1/rrfb_1_2/conv2d_8_1/convolution/ReadVariableOp", "op": "Const", "attr": {"dtype": {"type": "DT_FLOAT"}, "value": {"tensor": {"dtype": "DT_FLOAT", "tensorShape": {"dim": [{"size": "3"}, {"size": "3"}, {"size": "48"}, {"size": "48"}]}}}}}, {"name": "StatefulPartitionedCall/r2_net_1/rrfb_1_2/conv2d_8_1/Squeeze", "op": "Const", "attr": {"value": {"tensor": {"dtype": "DT_FLOAT", "tensorShape": {"dim": [{"size": "48"}]}}}, "dtype": {"type": "DT_FLOAT"}}}, {"name": "StatefulPartitionedCall/r2_net_1/rrfb_1_2/esa_1_1/conv2d_9_1/convolution/ReadVariableOp", "op": "Const", "attr": {"dtype": {"type": "DT_FLOAT"}, "value": {"tensor": {"dtype": "DT_FLOAT", "tensorShape": {"dim": [{"size": "1"}, {"size": "1"}, {"size": "48"}, {"size": "16"}]}}}}}, {"name": "StatefulPartitionedCall/r2_net_1/rrfb_1_2/esa_1_1/conv2d_9_1/Squeeze", "op": "Const", "attr": {"dtype": {"type": "DT_FLOAT"}, "value": {"tensor": {"dtype": "DT_FLOAT", "tensorShape": {"dim": [{"size": "16"}]}}}}}, {"name": "StatefulPartitionedCall/r2_net_1/rrfb_1_2/esa_1_1/conv2d_12_1/convolution/ReadVariableOp", "op": "Const", "attr": {"dtype": {"type": "DT_FLOAT"}, "value": {"tensor": {"dtype": "DT_FLOAT", "tensorShape": {"dim": [{"size": "1"}, {"size": "1"}, {"size": "16"}, {"size": "48"}]}}}}}, {"name": "StatefulPartitionedCall/r2_net_1/rrfb_1_2/esa_1_1/conv2d_12_1/Squeeze", "op": "Const", "attr": {"value": {"tensor": {"dtype": "DT_FLOAT", "tensorShape": {"dim": [{"size": "48"}]}}}, "dtype": {"type": "DT_FLOAT"}}}, {"name": "StatefulPartitionedCall/r2_net_1/rrfb_2_1/conv2d_13_1/convolution/ReadVariableOp", "op": "Const", "attr": {"dtype": {"type": "DT_FLOAT"}, "value": {"tensor": {"dtype": "DT_FLOAT", "tensorShape": {"dim": [{"size": "3"}, {"size": "3"}, {"size": "48"}, {"size": "48"}]}}}}}, {"name": "StatefulPartitionedCall/r2_net_1/rrfb_2_1/conv2d_13_1/Squeeze", "op": "Const", "attr": {"value": {"tensor": {"dtype": "DT_FLOAT", "tensorShape": {"dim": [{"size": "48"}]}}}, "dtype": {"type": "DT_FLOAT"}}}, {"name": "StatefulPartitionedCall/r2_net_1/rrfb_2_1/conv2d_14_1/convolution/ReadVariableOp", "op": "Const", "attr": {"value": {"tensor": {"dtype": "DT_FLOAT", "tensorShape": {"dim": [{"size": "3"}, {"size": "3"}, {"size": "48"}, {"size": "48"}]}}}, "dtype": {"type": "DT_FLOAT"}}}, {"name": "StatefulPartitionedCall/r2_net_1/rrfb_2_1/conv2d_14_1/Squeeze", "op": "Const", "attr": {"value": {"tensor": {"dtype": "DT_FLOAT", "tensorShape": {"dim": [{"size": "48"}]}}}, "dtype": {"type": "DT_FLOAT"}}}, {"name": "StatefulPartitionedCall/r2_net_1/rrfb_2_1/esa_2_1/conv2d_15_1/convolution/ReadVariableOp", "op": "Const", "attr": {"dtype": {"type": "DT_FLOAT"}, "value": {"tensor": {"dtype": "DT_FLOAT", "tensorShape": {"dim": [{"size": "1"}, {"size": "1"}, {"size": "48"}, {"size": "16"}]}}}}}, {"name": "StatefulPartitionedCall/r2_net_1/rrfb_2_1/esa_2_1/conv2d_15_1/Squeeze", "op": "Const", "attr": {"dtype": {"type": "DT_FLOAT"}, "value": {"tensor": {"dtype": "DT_FLOAT", "tensorShape": {"dim": [{"size": "16"}]}}}}}, {"name": "StatefulPartitionedCall/r2_net_1/rrfb_2_1/esa_2_1/conv2d_18_1/convolution/ReadVariableOp", "op": "Const", "attr": {"dtype": {"type": "DT_FLOAT"}, "value": {"tensor": {"dtype": "DT_FLOAT", "tensorShape": {"dim": [{"size": "1"}, {"size": "1"}, {"size": "16"}, {"size": "48"}]}}}}}, {"name": "StatefulPartitionedCall/r2_net_1/rrfb_2_1/esa_2_1/conv2d_18_1/Squeeze", "op": "Const", "attr": {"value": {"tensor": {"dtype": "DT_FLOAT", "tensorShape": {"dim": [{"size": "48"}]}}}, "dtype": {"type": "DT_FLOAT"}}}, {"name": "StatefulPartitionedCall/r2_net_1/rrfb_3_1/conv2d_19_1/convolution/ReadVariableOp", "op": "Const", "attr": {"value": {"tensor": {"dtype": "DT_FLOAT", "tensorShape": {"dim": [{"size": "3"}, {"size": "3"}, {"size": "48"}, {"size": "48"}]}}}, "dtype": {"type": "DT_FLOAT"}}}, {"name": "StatefulPartitionedCall/r2_net_1/rrfb_3_1/conv2d_19_1/Squeeze", "op": "Const", "attr": {"dtype": {"type": "DT_FLOAT"}, "value": {"tensor": {"dtype": "DT_FLOAT", "tensorShape": {"dim": [{"size": "48"}]}}}}}, {"name": "StatefulPartitionedCall/r2_net_1/rrfb_3_1/conv2d_20_1/convolution/ReadVariableOp", "op": "Const", "attr": {"dtype": {"type": "DT_FLOAT"}, "value": {"tensor": {"dtype": "DT_FLOAT", "tensorShape": {"dim": [{"size": "3"}, {"size": "3"}, {"size": "48"}, {"size": "48"}]}}}}}, {"name": "StatefulPartitionedCall/r2_net_1/rrfb_3_1/conv2d_20_1/Squeeze", "op": "Const", "attr": {"dtype": {"type": "DT_FLOAT"}, "value": {"tensor": {"dtype": "DT_FLOAT", "tensorShape": {"dim": [{"size": "48"}]}}}}}, {"name": "StatefulPartitionedCall/r2_net_1/rrfb_3_1/esa_3_1/conv2d_21_1/convolution/ReadVariableOp", "op": "Const", "attr": {"dtype": {"type": "DT_FLOAT"}, "value": {"tensor": {"dtype": "DT_FLOAT", "tensorShape": {"dim": [{"size": "1"}, {"size": "1"}, {"size": "48"}, {"size": "16"}]}}}}}, {"name": "StatefulPartitionedCall/r2_net_1/rrfb_3_1/esa_3_1/conv2d_21_1/Squeeze", "op": "Const", "attr": {"value": {"tensor": {"dtype": "DT_FLOAT", "tensorShape": {"dim": [{"size": "16"}]}}}, "dtype": {"type": "DT_FLOAT"}}}, {"name": "StatefulPartitionedCall/r2_net_1/rrfb_3_1/esa_3_1/conv2d_24_1/convolution/ReadVariableOp", "op": "Const", "attr": {"dtype": {"type": "DT_FLOAT"}, "value": {"tensor": {"dtype": "DT_FLOAT", "tensorShape": {"dim": [{"size": "1"}, {"size": "1"}, {"size": "16"}, {"size": "48"}]}}}}}, {"name": "StatefulPartitionedCall/r2_net_1/rrfb_3_1/esa_3_1/conv2d_24_1/Squeeze", "op": "Const", "attr": {"value": {"tensor": {"dtype": "DT_FLOAT", "tensorShape": {"dim": [{"size": "48"}]}}}, "dtype": {"type": "DT_FLOAT"}}}, {"name": "StatefulPartitionedCall/r2_net_1/conv2d_25_1/convolution/ReadVariableOp", "op": "Const", "attr": {"dtype": {"type": "DT_FLOAT"}, "value": {"tensor": {"dtype": "DT_FLOAT", "tensorShape": {"dim": [{"size": "1"}, {"size": "1"}, {"size": "48"}, {"size": "48"}]}}}}}, {"name": "StatefulPartitionedCall/r2_net_1/conv2d_25_1/Squeeze", "op": "Const", "attr": {"dtype": {"type": "DT_FLOAT"}, "value": {"tensor": {"dtype": "DT_FLOAT", "tensorShape": {"dim": [{"size": "48"}]}}}}}, {"name": "StatefulPartitionedCall/r2_net_1/conv2d_1/convolution/ReadVariableOp", "op": "Const", "attr": {"dtype": {"type": "DT_FLOAT"}, "value": {"tensor": {"dtype": "DT_FLOAT", "tensorShape": {"dim": [{"size": "3"}, {"size": "3"}, {"size": "3"}, {"size": "48"}]}}}}}, {"name": "StatefulPartitionedCall/r2_net_1/conv2d_1/Squeeze", "op": "Const", "attr": {"value": {"tensor": {"dtype": "DT_FLOAT", "tensorShape": {"dim": [{"size": "48"}]}}}, "dtype": {"type": "DT_FLOAT"}}}, {"name": "StatefulPartitionedCall/r2_net_1/conv2d_26_1/convolution/ReadVariableOp", "op": "Const", "attr": {"dtype": {"type": "DT_FLOAT"}, "value": {"tensor": {"dtype": "DT_FLOAT", "tensorShape": {"dim": [{"size": "3"}, {"size": "3"}, {"size": "48"}, {"size": "48"}]}}}}}, {"name": "StatefulPartitionedCall/r2_net_1/conv2d_26_1/Squeeze", "op": "Const", "attr": {"value": {"tensor": {"dtype": "DT_FLOAT", "tensorShape": {"dim": [{"size": "48"}]}}}, "dtype": {"type": "DT_FLOAT"}}}, {"name": "args_0", "op": "Placeholder", "attr": {"shape": {"shape": {"dim": [{"size": "-1"}, {"size": "540"}, {"size": "1024"}, {"size": "3"}]}}, "dtype": {"type": "DT_FLOAT"}}}, {"name": "StatefulPartitionedCall/r2_net_1/conv2d_1/BiasAdd", "op": "_FusedConv2D", "input": ["args_0", "StatefulPartitionedCall/r2_net_1/conv2d_1/convolution/ReadVariableOp", "StatefulPartitionedCall/r2_net_1/conv2d_1/Squeeze"], "device": "/device:CPU:0", "attr": {"dilations": {"list": {"i": ["1", "1", "1", "1"]}}, "TArgs": {"list": {"type": ["DT_FLOAT"]}}, "filter_format": {"s": "SFdJTw=="}, "_input_shapes": {"list": {"shape": [{"dim": [{"size": "-2"}, {"size": "-3"}, {"size": "-4"}, {"size": "-5"}]}, {"dim": [{"size": "3"}, {"size": "3"}, {"size": "3"}, {"size": "48"}]}]}}, "data_format": {"s": "TkhXQw=="}, "strides": {"list": {"i": ["1", "1", "1", "1"]}}, "num_args": {"i": "1"}, "padding": {"s": "U0FNRQ=="}, "num_host_args": {"i": "0"}, "epsilon": {"f": 0.0}, "use_cudnn_on_gpu": {"b": true}, "explicit_paddings": {"list": {}}, "leakyrelu_alpha": {"f": 0.2}, "fused_ops": {"list": {"s": ["Qmlhc0FkZA=="]}}, "T": {"type": "DT_FLOAT"}}}, {"name": "StatefulPartitionedCall/r2_net_1/rrfb_1/leaky_re_lu_1/LeakyRelu", "op": "_FusedConv2D", "input": ["StatefulPartitionedCall/r2_net_1/conv2d_1/BiasAdd", "StatefulPartitionedCall/r2_net_1/rrfb_1/conv2d_1_1/convolution/ReadVariableOp", "StatefulPartitionedCall/r2_net_1/rrfb_1/conv2d_1_1/Squeeze"], "device": "/device:CPU:0", "attr": {"data_format": {"s": "TkhXQw=="}, "filter_format": {"s": "SFdJTw=="}, "strides": {"list": {"i": ["1", "1", "1", "1"]}}, "epsilon": {"f": 0.0}, "TArgs": {"list": {"type": ["DT_FLOAT"]}}, "padding": {"s": "U0FNRQ=="}, "explicit_paddings": {"list": {}}, "dilations": {"list": {"i": ["1", "1", "1", "1"]}}, "_input_shapes": {"list": {"shape": [{"dim": [{"size": "-2"}, {"size": "-3"}, {"size": "-4"}, {"size": "48"}]}, {"dim": [{"size": "3"}, {"size": "3"}, {"size": "48"}, {"size": "48"}]}]}}, "fused_ops": {"list": {"s": ["Qmlhc0FkZA==", "TGVha3lSZWx1"]}}, "num_args": {"i": "1"}, "leakyrelu_alpha": {"f": 0.05}, "num_host_args": {"i": "0"}, "use_cudnn_on_gpu": {"b": true}, "T": {"type": "DT_FLOAT"}}}, {"name": "StatefulPartitionedCall/r2_net_1/rrfb_1/conv2d_2_1/BiasAdd", "op": "_FusedConv2D", "input": ["StatefulPartitionedCall/r2_net_1/rrfb_1/leaky_re_lu_1/LeakyRelu", "StatefulPartitionedCall/r2_net_1/rrfb_1/conv2d_2_1/convolution/ReadVariableOp", "StatefulPartitionedCall/r2_net_1/rrfb_1/conv2d_2_1/Squeeze"], "device": "/device:CPU:0", "attr": {"T": {"type": "DT_FLOAT"}, "TArgs": {"list": {"type": ["DT_FLOAT"]}}, "fused_ops": {"list": {"s": ["Qmlhc0FkZA=="]}}, "_input_shapes": {"list": {"shape": [{"dim": [{"size": "-2"}, {"size": "-3"}, {"size": "-4"}, {"size": "48"}]}, {"dim": [{"size": "3"}, {"size": "3"}, {"size": "48"}, {"size": "48"}]}]}}, "num_host_args": {"i": "0"}, "data_format": {"s": "TkhXQw=="}, "strides": {"list": {"i": ["1", "1", "1", "1"]}}, "use_cudnn_on_gpu": {"b": true}, "explicit_paddings": {"list": {}}, "filter_format": {"s": "SFdJTw=="}, "dilations": {"list": {"i": ["1", "1", "1", "1"]}}, "epsilon": {"f": 0.0}, "leakyrelu_alpha": {"f": 0.2}, "padding": {"s": "U0FNRQ=="}, "num_args": {"i": "1"}}}, {"name": "StatefulPartitionedCall/r2_net_1/rrfb_1/esa_1/Shape", "op": "Shape", "input": ["StatefulPartitionedCall/r2_net_1/rrfb_1/conv2d_2_1/BiasAdd"], "attr": {"out_type": {"type": "DT_INT32"}, "T": {"type": "DT_FLOAT"}}, "experimentalType": {"typeId": "TFT_PRODUCT", "args": [{"typeId": "TFT_SHAPE_TENSOR", "args": [{"typeId": "TFT_INT32"}]}]}}, {"name": "StatefulPartitionedCall/r2_net_1/rrfb_1/esa_1/Shape_1", "op": "Shape", "input": ["StatefulPartitionedCall/r2_net_1/rrfb_1/conv2d_2_1/BiasAdd"], "attr": {"T": {"type": "DT_FLOAT"}, "out_type": {"type": "DT_INT32"}}, "experimentalType": {"typeId": "TFT_PRODUCT", "args": [{"typeId": "TFT_SHAPE_TENSOR", "args": [{"typeId": "TFT_INT32"}]}]}}, {"name": "StatefulPartitionedCall/r2_net_1/rrfb_1/esa_1/conv2d_3_1/BiasAdd", "op": "_FusedConv2D", "input": ["StatefulPartitionedCall/r2_net_1/rrfb_1/conv2d_2_1/BiasAdd", "StatefulPartitionedCall/r2_net_1/rrfb_1/esa_1/conv2d_3_1/convolution/ReadVariableOp", "StatefulPartitionedCall/r2_net_1/rrfb_1/esa_1/conv2d_3_1/Squeeze"], "device": "/device:CPU:0", "attr": {"leakyrelu_alpha": {"f": 0.2}, "explicit_paddings": {"list": {}}, "num_args": {"i": "1"}, "T": {"type": "DT_FLOAT"}, "use_cudnn_on_gpu": {"b": true}, "TArgs": {"list": {"type": ["DT_FLOAT"]}}, "dilations": {"list": {"i": ["1", "1", "1", "1"]}}, "_input_shapes": {"list": {"shape": [{"dim": [{"size": "-2"}, {"size": "-3"}, {"size": "-4"}, {"size": "48"}]}, {"dim": [{"size": "1"}, {"size": "1"}, {"size": "48"}, {"size": "16"}]}]}}, "fused_ops": {"list": {"s": ["Qmlhc0FkZA=="]}}, "strides": {"list": {"i": ["1", "1", "1", "1"]}}, "num_host_args": {"i": "0"}, "padding": {"s": "U0FNRQ=="}, "filter_format": {"s": "SFdJTw=="}, "data_format": {"s": "TkhXQw=="}, "epsilon": {"f": 0.0}}}, {"name": "StatefulPartitionedCall/r2_net_1/rrfb_1/esa_1/strided_slice", "op": "StridedSlice", "input": ["StatefulPartitionedCall/r2_net_1/rrfb_1/esa_1/Shape", "StatefulPartitionedCall/r2_net_1/rrfb_1/esa_1/strided_slice/stack", "StatefulPartitionedCall/r2_net_1/rrfb_1/esa_1/strided_slice/stack_1", "StatefulPartitionedCall/r2_net_1/rrfb_1/esa_1/strided_slice/stack_2"], "attr": {"ellipsis_mask": {"i": "0"}, "begin_mask": {"i": "0"}, "end_mask": {"i": "0"}, "shrink_axis_mask": {"i": "1"}, "Index": {"type": "DT_INT32"}, "new_axis_mask": {"i": "0"}, "T": {"type": "DT_INT32"}}}, {"name": "StatefulPartitionedCall/r2_net_1/rrfb_1/esa_1/strided_slice_1", "op": "StridedSlice", "input": ["StatefulPartitionedCall/r2_net_1/rrfb_1/esa_1/Shape_1", "StatefulPartitionedCall/r2_net_1/rrfb_1/esa_1/strided_slice_1/stack", "StatefulPartitionedCall/r2_net_1/rrfb_1/esa_1/strided_slice_1/stack_1", "StatefulPartitionedCall/r2_net_1/rrfb_1/esa_1/strided_slice_1/stack_2"], "attr": {"Index": {"type": "DT_INT32"}, "ellipsis_mask": {"i": "0"}, "shrink_axis_mask": {"i": "1"}, "end_mask": {"i": "0"}, "T": {"type": "DT_INT32"}, "begin_mask": {"i": "0"}, "new_axis_mask": {"i": "0"}}}, {"name": "StatefulPartitionedCall/r2_net_1/rrfb_1/esa_1/conv2d_4_1/BiasAdd", "op": "_FusedConv2D", "input": ["StatefulPartitionedCall/r2_net_1/rrfb_1/esa_1/conv2d_3_1/BiasAdd", "StatefulPartitionedCall/r2_net_1/rrfb_1/esa_1/conv2d_4_1/convolution/ReadVariableOp", "StatefulPartitionedCall/r2_net_1/rrfb_1/esa_1/conv2d_4_1/Squeeze"], "device": "/device:CPU:0", "attr": {"fused_ops": {"list": {"s": ["Qmlhc0FkZA=="]}}, "leakyrelu_alpha": {"f": 0.2}, "explicit_paddings": {"list": {}}, "padding": {"s": "VkFMSUQ="}, "strides": {"list": {"i": ["1", "2", "2", "1"]}}, "_input_shapes": {"list": {"shape": [{"dim": [{"size": "-2"}, {"size": "-3"}, {"size": "-4"}, {"size": "16"}]}, {"dim": [{"size": "3"}, {"size": "3"}, {"size": "16"}, {"size": "16"}]}]}}, "TArgs": {"list": {"type": ["DT_FLOAT"]}}, "use_cudnn_on_gpu": {"b": true}, "num_host_args": {"i": "0"}, "data_format": {"s": "TkhXQw=="}, "filter_format": {"s": "SFdJTw=="}, "num_args": {"i": "1"}, "T": {"type": "DT_FLOAT"}, "dilations": {"list": {"i": ["1", "1", "1", "1"]}}, "epsilon": {"f": 0.0}}}, {"name": "StatefulPartitionedCall/r2_net_1/rrfb_1/esa_1/resize/size", "op": "Pack", "input": ["StatefulPartitionedCall/r2_net_1/rrfb_1/esa_1/strided_slice", "StatefulPartitionedCall/r2_net_1/rrfb_1/esa_1/strided_slice_1"], "attr": {"T": {"type": "DT_INT32"}, "N": {"i": "2"}, "axis": {"i": "0"}}}, {"name": "StatefulPartitionedCall/r2_net_1/rrfb_1/esa_1/MaxPool2d", "op": "MaxPool", "input": ["StatefulPartitionedCall/r2_net_1/rrfb_1/esa_1/conv2d_4_1/BiasAdd"], "attr": {"explicit_paddings": {"list": {}}, "padding": {"s": "VkFMSUQ="}, "strides": {"list": {"i": ["1", "3", "3", "1"]}}, "T": {"type": "DT_FLOAT"}, "data_format": {"s": "TkhXQw=="}, "ksize": {"list": {"i": ["1", "7", "7", "1"]}}}}, {"name": "StatefulPartitionedCall/r2_net_1/rrfb_1/esa_1/conv2d_5_1/BiasAdd", "op": "_FusedConv2D", "input": ["StatefulPartitionedCall/r2_net_1/rrfb_1/esa_1/MaxPool2d", "StatefulPartitionedCall/r2_net_1/rrfb_1/esa_1/conv2d_5_1/convolution/ReadVariableOp", "StatefulPartitionedCall/r2_net_1/rrfb_1/esa_1/conv2d_5_1/Squeeze"], "device": "/device:CPU:0", "attr": {"TArgs": {"list": {"type": ["DT_FLOAT"]}}, "_input_shapes": {"list": {"shape": [{"dim": [{"size": "-2"}, {"size": "-8"}, {"size": "-9"}, {"size": "16"}]}, {"dim": [{"size": "3"}, {"size": "3"}, {"size": "16"}, {"size": "16"}]}]}}, "leakyrelu_alpha": {"f": 0.2}, "explicit_paddings": {"list": {}}, "filter_format": {"s": "SFdJTw=="}, "epsilon": {"f": 0.0}, "padding": {"s": "U0FNRQ=="}, "strides": {"list": {"i": ["1", "1", "1", "1"]}}, "T": {"type": "DT_FLOAT"}, "data_format": {"s": "TkhXQw=="}, "dilations": {"list": {"i": ["1", "1", "1", "1"]}}, "use_cudnn_on_gpu": {"b": true}, "num_host_args": {"i": "0"}, "fused_ops": {"list": {"s": ["Qmlhc0FkZA=="]}}, "num_args": {"i": "1"}}}, {"name": "StatefulPartitionedCall/r2_net_1/rrfb_1/esa_1/resize/ResizeBilinear", "op": "ResizeBilinear", "input": ["StatefulPartitionedCall/r2_net_1/rrfb_1/esa_1/conv2d_5_1/BiasAdd", "StatefulPartitionedCall/r2_net_1/rrfb_1/esa_1/resize/size"], "attr": {"T": {"type": "DT_FLOAT"}, "align_corners": {"b": false}, "half_pixel_centers": {"b": true}}}, {"name": "StatefulPartitionedCall/r2_net_1/rrfb_1/esa_1/add", "op": "AddV2", "input": ["StatefulPartitionedCall/r2_net_1/rrfb_1/esa_1/resize/ResizeBilinear", "StatefulPartitionedCall/r2_net_1/rrfb_1/esa_1/conv2d_3_1/BiasAdd"], "attr": {"T": {"type": "DT_FLOAT"}}}, {"name": "StatefulPartitionedCall/r2_net_1/rrfb_1/esa_1/conv2d_6_1/BiasAdd", "op": "_FusedConv2D", "input": ["StatefulPartitionedCall/r2_net_1/rrfb_1/esa_1/add", "StatefulPartitionedCall/r2_net_1/rrfb_1/esa_1/conv2d_6_1/convolution/ReadVariableOp", "StatefulPartitionedCall/r2_net_1/rrfb_1/esa_1/conv2d_6_1/Squeeze"], "device": "/device:CPU:0", "attr": {"epsilon": {"f": 0.0}, "num_host_args": {"i": "0"}, "strides": {"list": {"i": ["1", "1", "1", "1"]}}, "leakyrelu_alpha": {"f": 0.2}, "padding": {"s": "U0FNRQ=="}, "num_args": {"i": "1"}, "use_cudnn_on_gpu": {"b": true}, "_input_shapes": {"list": {"shape": [{"dim": [{"size": "-2"}, {"size": "-12"}, {"size": "-13"}, {"size": "16"}]}, {"dim": [{"size": "1"}, {"size": "1"}, {"size": "16"}, {"size": "48"}]}]}}, "fused_ops": {"list": {"s": ["Qmlhc0FkZA=="]}}, "data_format": {"s": "TkhXQw=="}, "T": {"type": "DT_FLOAT"}, "explicit_paddings": {"list": {}}, "TArgs": {"list": {"type": ["DT_FLOAT"]}}, "dilations": {"list": {"i": ["1", "1", "1", "1"]}}, "filter_format": {"s": "SFdJTw=="}}}, {"name": "StatefulPartitionedCall/r2_net_1/rrfb_1/esa_1/Sigmoid", "op": "Sigmoid", "input": ["StatefulPartitionedCall/r2_net_1/rrfb_1/esa_1/conv2d_6_1/BiasAdd"], "attr": {"T": {"type": "DT_FLOAT"}, "_input_shapes": {"list": {"shape": [{"dim": [{"size": "-2"}, {"size": "-12"}, {"size": "-13"}, {"size": "48"}]}]}}}}, {"name": "StatefulPartitionedCall/r2_net_1/rrfb_1/esa_1/mul", "op": "Mul", "input": ["StatefulPartitionedCall/r2_net_1/rrfb_1/conv2d_2_1/BiasAdd", "StatefulPartitionedCall/r2_net_1/rrfb_1/esa_1/Sigmoid"], "attr": {"T": {"type": "DT_FLOAT"}}}, {"name": "StatefulPartitionedCall/r2_net_1/rrfb_1_2/leaky_re_lu_1_1/LeakyRelu", "op": "_FusedConv2D", "input": ["StatefulPartitionedCall/r2_net_1/rrfb_1/esa_1/mul", "StatefulPartitionedCall/r2_net_1/rrfb_1_2/conv2d_7_1/convolution/ReadVariableOp", "StatefulPartitionedCall/r2_net_1/rrfb_1_2/conv2d_7_1/Squeeze"], "device": "/device:CPU:0", "attr": {"epsilon": {"f": 0.0}, "strides": {"list": {"i": ["1", "1", "1", "1"]}}, "filter_format": {"s": "SFdJTw=="}, "T": {"type": "DT_FLOAT"}, "TArgs": {"list": {"type": ["DT_FLOAT"]}}, "data_format": {"s": "TkhXQw=="}, "dilations": {"list": {"i": ["1", "1", "1", "1"]}}, "fused_ops": {"list": {"s": ["Qmlhc0FkZA==", "TGVha3lSZWx1"]}}, "explicit_paddings": {"list": {}}, "_input_shapes": {"list": {"shape": [{"dim": [{"size": "-2"}, {"size": "-14"}, {"size": "-15"}, {"size": "48"}]}, {"dim": [{"size": "3"}, {"size": "3"}, {"size": "48"}, {"size": "48"}]}]}}, "use_cudnn_on_gpu": {"b": true}, "padding": {"s": "U0FNRQ=="}, "leakyrelu_alpha": {"f": 0.05}, "num_args": {"i": "1"}, "num_host_args": {"i": "0"}}}, {"name": "StatefulPartitionedCall/r2_net_1/rrfb_1_2/conv2d_8_1/BiasAdd", "op": "_FusedConv2D", "input": ["StatefulPartitionedCall/r2_net_1/rrfb_1_2/leaky_re_lu_1_1/LeakyRelu", "StatefulPartitionedCall/r2_net_1/rrfb_1_2/conv2d_8_1/convolution/ReadVariableOp", "StatefulPartitionedCall/r2_net_1/rrfb_1_2/conv2d_8_1/Squeeze"], "device": "/device:CPU:0", "attr": {"filter_format": {"s": "SFdJTw=="}, "fused_ops": {"list": {"s": ["Qmlhc0FkZA=="]}}, "leakyrelu_alpha": {"f": 0.2}, "padding": {"s": "U0FNRQ=="}, "_input_shapes": {"list": {"shape": [{"dim": [{"size": "-2"}, {"size": "-14"}, {"size": "-15"}, {"size": "48"}]}, {"dim": [{"size": "3"}, {"size": "3"}, {"size": "48"}, {"size": "48"}]}]}}, "epsilon": {"f": 0.0}, "T": {"type": "DT_FLOAT"}, "data_format": {"s": "TkhXQw=="}, "num_host_args": {"i": "0"}, "TArgs": {"list": {"type": ["DT_FLOAT"]}}, "num_args": {"i": "1"}, "strides": {"list": {"i": ["1", "1", "1", "1"]}}, "dilations": {"list": {"i": ["1", "1", "1", "1"]}}, "explicit_paddings": {"list": {}}, "use_cudnn_on_gpu": {"b": true}}}, {"name": "StatefulPartitionedCall/r2_net_1/rrfb_1_2/esa_1_1/Shape", "op": "Shape", "input": ["StatefulPartitionedCall/r2_net_1/rrfb_1_2/conv2d_8_1/BiasAdd"], "attr": {"out_type": {"type": "DT_INT32"}, "T": {"type": "DT_FLOAT"}}, "experimentalType": {"typeId": "TFT_PRODUCT", "args": [{"typeId": "TFT_SHAPE_TENSOR", "args": [{"typeId": "TFT_INT32"}]}]}}, {"name": "StatefulPartitionedCall/r2_net_1/rrfb_1_2/esa_1_1/Shape_1", "op": "Shape", "input": ["StatefulPartitionedCall/r2_net_1/rrfb_1_2/conv2d_8_1/BiasAdd"], "attr": {"out_type": {"type": "DT_INT32"}, "T": {"type": "DT_FLOAT"}}, "experimentalType": {"typeId": "TFT_PRODUCT", "args": [{"typeId": "TFT_SHAPE_TENSOR", "args": [{"typeId": "TFT_INT32"}]}]}}, {"name": "StatefulPartitionedCall/r2_net_1/rrfb_1_2/esa_1_1/conv2d_9_1/BiasAdd", "op": "_FusedConv2D", "input": ["StatefulPartitionedCall/r2_net_1/rrfb_1_2/conv2d_8_1/BiasAdd", "StatefulPartitionedCall/r2_net_1/rrfb_1_2/esa_1_1/conv2d_9_1/convolution/ReadVariableOp", "StatefulPartitionedCall/r2_net_1/rrfb_1_2/esa_1_1/conv2d_9_1/Squeeze"], "device": "/device:CPU:0", "attr": {"leakyrelu_alpha": {"f": 0.2}, "data_format": {"s": "TkhXQw=="}, "use_cudnn_on_gpu": {"b": true}, "epsilon": {"f": 0.0}, "TArgs": {"list": {"type": ["DT_FLOAT"]}}, "num_host_args": {"i": "0"}, "filter_format": {"s": "SFdJTw=="}, "dilations": {"list": {"i": ["1", "1", "1", "1"]}}, "_input_shapes": {"list": {"shape": [{"dim": [{"size": "-2"}, {"size": "-14"}, {"size": "-15"}, {"size": "48"}]}, {"dim": [{"size": "1"}, {"size": "1"}, {"size": "48"}, {"size": "16"}]}]}}, "T": {"type": "DT_FLOAT"}, "fused_ops": {"list": {"s": ["Qmlhc0FkZA=="]}}, "padding": {"s": "U0FNRQ=="}, "num_args": {"i": "1"}, "strides": {"list": {"i": ["1", "1", "1", "1"]}}, "explicit_paddings": {"list": {}}}}, {"name": "StatefulPartitionedCall/r2_net_1/rrfb_1_2/esa_1_1/strided_slice", "op": "StridedSlice", "input": ["StatefulPartitionedCall/r2_net_1/rrfb_1_2/esa_1_1/Shape", "StatefulPartitionedCall/r2_net_1/rrfb_1_2/esa_1_1/strided_slice/stack", "StatefulPartitionedCall/r2_net_1/rrfb_1_2/esa_1_1/strided_slice/stack_1", "StatefulPartitionedCall/r2_net_1/rrfb_1_2/esa_1_1/strided_slice/stack_2"], "attr": {"T": {"type": "DT_INT32"}, "begin_mask": {"i": "0"}, "shrink_axis_mask": {"i": "1"}, "new_axis_mask": {"i": "0"}, "end_mask": {"i": "0"}, "ellipsis_mask": {"i": "0"}, "Index": {"type": "DT_INT32"}}}, {"name": "StatefulPartitionedCall/r2_net_1/rrfb_1_2/esa_1_1/strided_slice_1", "op": "StridedSlice", "input": ["StatefulPartitionedCall/r2_net_1/rrfb_1_2/esa_1_1/Shape_1", "StatefulPartitionedCall/r2_net_1/rrfb_1_2/esa_1_1/strided_slice_1/stack", "StatefulPartitionedCall/r2_net_1/rrfb_1_2/esa_1_1/strided_slice_1/stack_1", "StatefulPartitionedCall/r2_net_1/rrfb_1_2/esa_1_1/strided_slice_1/stack_2"], "attr": {"shrink_axis_mask": {"i": "1"}, "begin_mask": {"i": "0"}, "T": {"type": "DT_INT32"}, "new_axis_mask": {"i": "0"}, "ellipsis_mask": {"i": "0"}, "Index": {"type": "DT_INT32"}, "end_mask": {"i": "0"}}}, {"name": "StatefulPartitionedCall/r2_net_1/rrfb_1_2/esa_1_1/conv2d_10_1/BiasAdd", "op": "_FusedConv2D", "input": ["StatefulPartitionedCall/r2_net_1/rrfb_1_2/esa_1_1/conv2d_9_1/BiasAdd", "StatefulPartitionedCall/r2_net_1/rrfb_1_2/esa_1_1/conv2d_10_1/convolution/ReadVariableOp", "StatefulPartitionedCall/r2_net_1/rrfb_1_2/esa_1_1/conv2d_10_1/Squeeze"], "device": "/device:CPU:0", "attr": {"num_args": {"i": "1"}, "TArgs": {"list": {"type": ["DT_FLOAT"]}}, "epsilon": {"f": 0.0}, "strides": {"list": {"i": ["1", "2", "2", "1"]}}, "num_host_args": {"i": "0"}, "filter_format": {"s": "SFdJTw=="}, "_input_shapes": {"list": {"shape": [{"dim": [{"size": "-2"}, {"size": "-14"}, {"size": "-15"}, {"size": "16"}]}, {"dim": [{"size": "3"}, {"size": "3"}, {"size": "16"}, {"size": "16"}]}]}}, "T": {"type": "DT_FLOAT"}, "data_format": {"s": "TkhXQw=="}, "explicit_paddings": {"list": {}}, "use_cudnn_on_gpu": {"b": true}, "dilations": {"list": {"i": ["1", "1", "1", "1"]}}, "leakyrelu_alpha": {"f": 0.2}, "padding": {"s": "VkFMSUQ="}, "fused_ops": {"list": {"s": ["Qmlhc0FkZA=="]}}}}, {"name": "StatefulPartitionedCall/r2_net_1/rrfb_1_2/esa_1_1/resize/size", "op": "Pack", "input": ["StatefulPartitionedCall/r2_net_1/rrfb_1_2/esa_1_1/strided_slice", "StatefulPartitionedCall/r2_net_1/rrfb_1_2/esa_1_1/strided_slice_1"], "attr": {"N": {"i": "2"}, "T": {"type": "DT_INT32"}, "axis": {"i": "0"}}}, {"name": "StatefulPartitionedCall/r2_net_1/rrfb_1_2/esa_1_1/MaxPool2d", "op": "MaxPool", "input": ["StatefulPartitionedCall/r2_net_1/rrfb_1_2/esa_1_1/conv2d_10_1/BiasAdd"], "attr": {"strides": {"list": {"i": ["1", "3", "3", "1"]}}, "T": {"type": "DT_FLOAT"}, "ksize": {"list": {"i": ["1", "7", "7", "1"]}}, "data_format": {"s": "TkhXQw=="}, "padding": {"s": "VkFMSUQ="}, "explicit_paddings": {"list": {}}}}, {"name": "StatefulPartitionedCall/r2_net_1/rrfb_1_2/esa_1_1/conv2d_11_1/BiasAdd", "op": "_FusedConv2D", "input": ["StatefulPartitionedCall/r2_net_1/rrfb_1_2/esa_1_1/MaxPool2d", "StatefulPartitionedCall/r2_net_1/rrfb_1_2/esa_1_1/conv2d_11_1/convolution/ReadVariableOp", "StatefulPartitionedCall/r2_net_1/rrfb_1_2/esa_1_1/conv2d_11_1/Squeeze"], "device": "/device:CPU:0", "attr": {"filter_format": {"s": "SFdJTw=="}, "data_format": {"s": "TkhXQw=="}, "padding": {"s": "U0FNRQ=="}, "fused_ops": {"list": {"s": ["Qmlhc0FkZA=="]}}, "leakyrelu_alpha": {"f": 0.2}, "strides": {"list": {"i": ["1", "1", "1", "1"]}}, "num_args": {"i": "1"}, "use_cudnn_on_gpu": {"b": true}, "TArgs": {"list": {"type": ["DT_FLOAT"]}}, "epsilon": {"f": 0.0}, "T": {"type": "DT_FLOAT"}, "num_host_args": {"i": "0"}, "dilations": {"list": {"i": ["1", "1", "1", "1"]}}, "explicit_paddings": {"list": {}}, "_input_shapes": {"list": {"shape": [{"dim": [{"size": "-2"}, {"size": "-18"}, {"size": "-19"}, {"size": "16"}]}, {"dim": [{"size": "3"}, {"size": "3"}, {"size": "16"}, {"size": "16"}]}]}}}}, {"name": "StatefulPartitionedCall/r2_net_1/rrfb_1_2/esa_1_1/resize/ResizeBilinear", "op": "ResizeBilinear", "input": ["StatefulPartitionedCall/r2_net_1/rrfb_1_2/esa_1_1/conv2d_11_1/BiasAdd", "StatefulPartitionedCall/r2_net_1/rrfb_1_2/esa_1_1/resize/size"], "attr": {"align_corners": {"b": false}, "T": {"type": "DT_FLOAT"}, "half_pixel_centers": {"b": true}}}, {"name": "StatefulPartitionedCall/r2_net_1/rrfb_1_2/esa_1_1/add", "op": "AddV2", "input": ["StatefulPartitionedCall/r2_net_1/rrfb_1_2/esa_1_1/resize/ResizeBilinear", "StatefulPartitionedCall/r2_net_1/rrfb_1_2/esa_1_1/conv2d_9_1/BiasAdd"], "attr": {"T": {"type": "DT_FLOAT"}}}, {"name": "StatefulPartitionedCall/r2_net_1/rrfb_1_2/esa_1_1/conv2d_12_1/BiasAdd", "op": "_FusedConv2D", "input": ["StatefulPartitionedCall/r2_net_1/rrfb_1_2/esa_1_1/add", "StatefulPartitionedCall/r2_net_1/rrfb_1_2/esa_1_1/conv2d_12_1/convolution/ReadVariableOp", "StatefulPartitionedCall/r2_net_1/rrfb_1_2/esa_1_1/conv2d_12_1/Squeeze"], "device": "/device:CPU:0", "attr": {"leakyrelu_alpha": {"f": 0.2}, "strides": {"list": {"i": ["1", "1", "1", "1"]}}, "use_cudnn_on_gpu": {"b": true}, "epsilon": {"f": 0.0}, "explicit_paddings": {"list": {}}, "fused_ops": {"list": {"s": ["Qmlhc0FkZA=="]}}, "padding": {"s": "U0FNRQ=="}, "num_args": {"i": "1"}, "_input_shapes": {"list": {"shape": [{"dim": [{"size": "-2"}, {"size": "-22"}, {"size": "-23"}, {"size": "16"}]}, {"dim": [{"size": "1"}, {"size": "1"}, {"size": "16"}, {"size": "48"}]}]}}, "dilations": {"list": {"i": ["1", "1", "1", "1"]}}, "filter_format": {"s": "SFdJTw=="}, "data_format": {"s": "TkhXQw=="}, "T": {"type": "DT_FLOAT"}, "TArgs": {"list": {"type": ["DT_FLOAT"]}}, "num_host_args": {"i": "0"}}}, {"name": "StatefulPartitionedCall/r2_net_1/rrfb_1_2/esa_1_1/Sigmoid", "op": "Sigmoid", "input": ["StatefulPartitionedCall/r2_net_1/rrfb_1_2/esa_1_1/conv2d_12_1/BiasAdd"], "attr": {"T": {"type": "DT_FLOAT"}, "_input_shapes": {"list": {"shape": [{"dim": [{"size": "-2"}, {"size": "-22"}, {"size": "-23"}, {"size": "48"}]}]}}}}, {"name": "StatefulPartitionedCall/r2_net_1/rrfb_1_2/esa_1_1/mul", "op": "Mul", "input": ["StatefulPartitionedCall/r2_net_1/rrfb_1_2/conv2d_8_1/BiasAdd", "StatefulPartitionedCall/r2_net_1/rrfb_1_2/esa_1_1/Sigmoid"], "attr": {"T": {"type": "DT_FLOAT"}}}, {"name": "StatefulPartitionedCall/r2_net_1/rrfb_2_1/leaky_re_lu_2_1/LeakyRelu", "op": "_FusedConv2D", "input": ["StatefulPartitionedCall/r2_net_1/rrfb_1_2/esa_1_1/mul", "StatefulPartitionedCall/r2_net_1/rrfb_2_1/conv2d_13_1/convolution/ReadVariableOp", "StatefulPartitionedCall/r2_net_1/rrfb_2_1/conv2d_13_1/Squeeze"], "device": "/device:CPU:0", "attr": {"dilations": {"list": {"i": ["1", "1", "1", "1"]}}, "use_cudnn_on_gpu": {"b": true}, "num_args": {"i": "1"}, "padding": {"s": "U0FNRQ=="}, "explicit_paddings": {"list": {}}, "_input_shapes": {"list": {"shape": [{"dim": [{"size": "-2"}, {"size": "-24"}, {"size": "-25"}, {"size": "48"}]}, {"dim": [{"size": "3"}, {"size": "3"}, {"size": "48"}, {"size": "48"}]}]}}, "TArgs": {"list": {"type": ["DT_FLOAT"]}}, "data_format": {"s": "TkhXQw=="}, "filter_format": {"s": "SFdJTw=="}, "num_host_args": {"i": "0"}, "leakyrelu_alpha": {"f": 0.05}, "T": {"type": "DT_FLOAT"}, "strides": {"list": {"i": ["1", "1", "1", "1"]}}, "epsilon": {"f": 0.0}, "fused_ops": {"list": {"s": ["Qmlhc0FkZA==", "TGVha3lSZWx1"]}}}}, {"name": "StatefulPartitionedCall/r2_net_1/rrfb_2_1/conv2d_14_1/BiasAdd", "op": "_FusedConv2D", "input": ["StatefulPartitionedCall/r2_net_1/rrfb_2_1/leaky_re_lu_2_1/LeakyRelu", "StatefulPartitionedCall/r2_net_1/rrfb_2_1/conv2d_14_1/convolution/ReadVariableOp", "StatefulPartitionedCall/r2_net_1/rrfb_2_1/conv2d_14_1/Squeeze"], "device": "/device:CPU:0", "attr": {"leakyrelu_alpha": {"f": 0.2}, "fused_ops": {"list": {"s": ["Qmlhc0FkZA=="]}}, "TArgs": {"list": {"type": ["DT_FLOAT"]}}, "num_host_args": {"i": "0"}, "filter_format": {"s": "SFdJTw=="}, "num_args": {"i": "1"}, "epsilon": {"f": 0.0}, "T": {"type": "DT_FLOAT"}, "dilations": {"list": {"i": ["1", "1", "1", "1"]}}, "strides": {"list": {"i": ["1", "1", "1", "1"]}}, "_input_shapes": {"list": {"shape": [{"dim": [{"size": "-2"}, {"size": "-24"}, {"size": "-25"}, {"size": "48"}]}, {"dim": [{"size": "3"}, {"size": "3"}, {"size": "48"}, {"size": "48"}]}]}}, "data_format": {"s": "TkhXQw=="}, "padding": {"s": "U0FNRQ=="}, "explicit_paddings": {"list": {}}, "use_cudnn_on_gpu": {"b": true}}}, {"name": "StatefulPartitionedCall/r2_net_1/rrfb_2_1/esa_2_1/Shape", "op": "Shape", "input": ["StatefulPartitionedCall/r2_net_1/rrfb_2_1/conv2d_14_1/BiasAdd"], "attr": {"T": {"type": "DT_FLOAT"}, "out_type": {"type": "DT_INT32"}}, "experimentalType": {"typeId": "TFT_PRODUCT", "args": [{"typeId": "TFT_SHAPE_TENSOR", "args": [{"typeId": "TFT_INT32"}]}]}}, {"name": "StatefulPartitionedCall/r2_net_1/rrfb_2_1/esa_2_1/Shape_1", "op": "Shape", "input": ["StatefulPartitionedCall/r2_net_1/rrfb_2_1/conv2d_14_1/BiasAdd"], "attr": {"T": {"type": "DT_FLOAT"}, "out_type": {"type": "DT_INT32"}}, "experimentalType": {"typeId": "TFT_PRODUCT", "args": [{"typeId": "TFT_SHAPE_TENSOR", "args": [{"typeId": "TFT_INT32"}]}]}}, {"name": "StatefulPartitionedCall/r2_net_1/rrfb_2_1/esa_2_1/conv2d_15_1/BiasAdd", "op": "_FusedConv2D", "input": ["StatefulPartitionedCall/r2_net_1/rrfb_2_1/conv2d_14_1/BiasAdd", "StatefulPartitionedCall/r2_net_1/rrfb_2_1/esa_2_1/conv2d_15_1/convolution/ReadVariableOp", "StatefulPartitionedCall/r2_net_1/rrfb_2_1/esa_2_1/conv2d_15_1/Squeeze"], "device": "/device:CPU:0", "attr": {"use_cudnn_on_gpu": {"b": true}, "filter_format": {"s": "SFdJTw=="}, "num_args": {"i": "1"}, "dilations": {"list": {"i": ["1", "1", "1", "1"]}}, "fused_ops": {"list": {"s": ["Qmlhc0FkZA=="]}}, "_input_shapes": {"list": {"shape": [{"dim": [{"size": "-2"}, {"size": "-24"}, {"size": "-25"}, {"size": "48"}]}, {"dim": [{"size": "1"}, {"size": "1"}, {"size": "48"}, {"size": "16"}]}]}}, "epsilon": {"f": 0.0}, "explicit_paddings": {"list": {}}, "padding": {"s": "U0FNRQ=="}, "T": {"type": "DT_FLOAT"}, "strides": {"list": {"i": ["1", "1", "1", "1"]}}, "leakyrelu_alpha": {"f": 0.2}, "num_host_args": {"i": "0"}, "TArgs": {"list": {"type": ["DT_FLOAT"]}}, "data_format": {"s": "TkhXQw=="}}}, {"name": "StatefulPartitionedCall/r2_net_1/rrfb_2_1/esa_2_1/strided_slice", "op": "StridedSlice", "input": ["StatefulPartitionedCall/r2_net_1/rrfb_2_1/esa_2_1/Shape", "StatefulPartitionedCall/r2_net_1/rrfb_2_1/esa_2_1/strided_slice/stack", "StatefulPartitionedCall/r2_net_1/rrfb_2_1/esa_2_1/strided_slice/stack_1", "StatefulPartitionedCall/r2_net_1/rrfb_2_1/esa_2_1/strided_slice/stack_2"], "attr": {"new_axis_mask": {"i": "0"}, "shrink_axis_mask": {"i": "1"}, "begin_mask": {"i": "0"}, "T": {"type": "DT_INT32"}, "end_mask": {"i": "0"}, "ellipsis_mask": {"i": "0"}, "Index": {"type": "DT_INT32"}}}, {"name": "StatefulPartitionedCall/r2_net_1/rrfb_2_1/esa_2_1/strided_slice_1", "op": "StridedSlice", "input": ["StatefulPartitionedCall/r2_net_1/rrfb_2_1/esa_2_1/Shape_1", "StatefulPartitionedCall/r2_net_1/rrfb_2_1/esa_2_1/strided_slice_1/stack", "StatefulPartitionedCall/r2_net_1/rrfb_2_1/esa_2_1/strided_slice_1/stack_1", "StatefulPartitionedCall/r2_net_1/rrfb_2_1/esa_2_1/strided_slice_1/stack_2"], "attr": {"T": {"type": "DT_INT32"}, "new_axis_mask": {"i": "0"}, "ellipsis_mask": {"i": "0"}, "shrink_axis_mask": {"i": "1"}, "begin_mask": {"i": "0"}, "end_mask": {"i": "0"}, "Index": {"type": "DT_INT32"}}}, {"name": "StatefulPartitionedCall/r2_net_1/rrfb_2_1/esa_2_1/conv2d_16_1/BiasAdd", "op": "_FusedConv2D", "input": ["StatefulPartitionedCall/r2_net_1/rrfb_2_1/esa_2_1/conv2d_15_1/BiasAdd", "StatefulPartitionedCall/r2_net_1/rrfb_2_1/esa_2_1/conv2d_16_1/convolution/ReadVariableOp", "StatefulPartitionedCall/r2_net_1/rrfb_2_1/esa_2_1/conv2d_16_1/Squeeze"], "device": "/device:CPU:0", "attr": {"TArgs": {"list": {"type": ["DT_FLOAT"]}}, "num_host_args": {"i": "0"}, "num_args": {"i": "1"}, "data_format": {"s": "TkhXQw=="}, "filter_format": {"s": "SFdJTw=="}, "leakyrelu_alpha": {"f": 0.2}, "dilations": {"list": {"i": ["1", "1", "1", "1"]}}, "strides": {"list": {"i": ["1", "2", "2", "1"]}}, "use_cudnn_on_gpu": {"b": true}, "fused_ops": {"list": {"s": ["Qmlhc0FkZA=="]}}, "T": {"type": "DT_FLOAT"}, "_input_shapes": {"list": {"shape": [{"dim": [{"size": "-2"}, {"size": "-24"}, {"size": "-25"}, {"size": "16"}]}, {"dim": [{"size": "3"}, {"size": "3"}, {"size": "16"}, {"size": "16"}]}]}}, "explicit_paddings": {"list": {}}, "epsilon": {"f": 0.0}, "padding": {"s": "VkFMSUQ="}}}, {"name": "StatefulPartitionedCall/r2_net_1/rrfb_2_1/esa_2_1/resize/size", "op": "Pack", "input": ["StatefulPartitionedCall/r2_net_1/rrfb_2_1/esa_2_1/strided_slice", "StatefulPartitionedCall/r2_net_1/rrfb_2_1/esa_2_1/strided_slice_1"], "attr": {"T": {"type": "DT_INT32"}, "N": {"i": "2"}, "axis": {"i": "0"}}}, {"name": "StatefulPartitionedCall/r2_net_1/rrfb_2_1/esa_2_1/MaxPool2d", "op": "MaxPool", "input": ["StatefulPartitionedCall/r2_net_1/rrfb_2_1/esa_2_1/conv2d_16_1/BiasAdd"], "attr": {"explicit_paddings": {"list": {}}, "padding": {"s": "VkFMSUQ="}, "strides": {"list": {"i": ["1", "3", "3", "1"]}}, "data_format": {"s": "TkhXQw=="}, "T": {"type": "DT_FLOAT"}, "ksize": {"list": {"i": ["1", "7", "7", "1"]}}}}, {"name": "StatefulPartitionedCall/r2_net_1/rrfb_2_1/esa_2_1/conv2d_17_1/BiasAdd", "op": "_FusedConv2D", "input": ["StatefulPartitionedCall/r2_net_1/rrfb_2_1/esa_2_1/MaxPool2d", "StatefulPartitionedCall/r2_net_1/rrfb_2_1/esa_2_1/conv2d_17_1/convolution/ReadVariableOp", "StatefulPartitionedCall/r2_net_1/rrfb_2_1/esa_2_1/conv2d_17_1/Squeeze"], "device": "/device:CPU:0", "attr": {"leakyrelu_alpha": {"f": 0.2}, "filter_format": {"s": "SFdJTw=="}, "num_host_args": {"i": "0"}, "TArgs": {"list": {"type": ["DT_FLOAT"]}}, "data_format": {"s": "TkhXQw=="}, "padding": {"s": "U0FNRQ=="}, "strides": {"list": {"i": ["1", "1", "1", "1"]}}, "num_args": {"i": "1"}, "dilations": {"list": {"i": ["1", "1", "1", "1"]}}, "fused_ops": {"list": {"s": ["Qmlhc0FkZA=="]}}, "_input_shapes": {"list": {"shape": [{"dim": [{"size": "-2"}, {"size": "-28"}, {"size": "-29"}, {"size": "16"}]}, {"dim": [{"size": "3"}, {"size": "3"}, {"size": "16"}, {"size": "16"}]}]}}, "T": {"type": "DT_FLOAT"}, "explicit_paddings": {"list": {}}, "use_cudnn_on_gpu": {"b": true}, "epsilon": {"f": 0.0}}}, {"name": "StatefulPartitionedCall/r2_net_1/rrfb_2_1/esa_2_1/resize/ResizeBilinear", "op": "ResizeBilinear", "input": ["StatefulPartitionedCall/r2_net_1/rrfb_2_1/esa_2_1/conv2d_17_1/BiasAdd", "StatefulPartitionedCall/r2_net_1/rrfb_2_1/esa_2_1/resize/size"], "attr": {"align_corners": {"b": false}, "T": {"type": "DT_FLOAT"}, "half_pixel_centers": {"b": true}}}, {"name": "StatefulPartitionedCall/r2_net_1/rrfb_2_1/esa_2_1/add", "op": "AddV2", "input": ["StatefulPartitionedCall/r2_net_1/rrfb_2_1/esa_2_1/resize/ResizeBilinear", "StatefulPartitionedCall/r2_net_1/rrfb_2_1/esa_2_1/conv2d_15_1/BiasAdd"], "attr": {"T": {"type": "DT_FLOAT"}}}, {"name": "StatefulPartitionedCall/r2_net_1/rrfb_2_1/esa_2_1/conv2d_18_1/BiasAdd", "op": "_FusedConv2D", "input": ["StatefulPartitionedCall/r2_net_1/rrfb_2_1/esa_2_1/add", "StatefulPartitionedCall/r2_net_1/rrfb_2_1/esa_2_1/conv2d_18_1/convolution/ReadVariableOp", "StatefulPartitionedCall/r2_net_1/rrfb_2_1/esa_2_1/conv2d_18_1/Squeeze"], "device": "/device:CPU:0", "attr": {"TArgs": {"list": {"type": ["DT_FLOAT"]}}, "padding": {"s": "U0FNRQ=="}, "num_host_args": {"i": "0"}, "dilations": {"list": {"i": ["1", "1", "1", "1"]}}, "filter_format": {"s": "SFdJTw=="}, "leakyrelu_alpha": {"f": 0.2}, "fused_ops": {"list": {"s": ["Qmlhc0FkZA=="]}}, "explicit_paddings": {"list": {}}, "_input_shapes": {"list": {"shape": [{"dim": [{"size": "-2"}, {"size": "-32"}, {"size": "-33"}, {"size": "16"}]}, {"dim": [{"size": "1"}, {"size": "1"}, {"size": "16"}, {"size": "48"}]}]}}, "epsilon": {"f": 0.0}, "strides": {"list": {"i": ["1", "1", "1", "1"]}}, "data_format": {"s": "TkhXQw=="}, "T": {"type": "DT_FLOAT"}, "use_cudnn_on_gpu": {"b": true}, "num_args": {"i": "1"}}}, {"name": "StatefulPartitionedCall/r2_net_1/rrfb_2_1/esa_2_1/Sigmoid", "op": "Sigmoid", "input": ["StatefulPartitionedCall/r2_net_1/rrfb_2_1/esa_2_1/conv2d_18_1/BiasAdd"], "attr": {"T": {"type": "DT_FLOAT"}, "_input_shapes": {"list": {"shape": [{"dim": [{"size": "-2"}, {"size": "-32"}, {"size": "-33"}, {"size": "48"}]}]}}}}, {"name": "StatefulPartitionedCall/r2_net_1/rrfb_2_1/esa_2_1/mul", "op": "Mul", "input": ["StatefulPartitionedCall/r2_net_1/rrfb_2_1/conv2d_14_1/BiasAdd", "StatefulPartitionedCall/r2_net_1/rrfb_2_1/esa_2_1/Sigmoid"], "attr": {"T": {"type": "DT_FLOAT"}}}, {"name": "StatefulPartitionedCall/r2_net_1/rrfb_3_1/leaky_re_lu_3_1/LeakyRelu", "op": "_FusedConv2D", "input": ["StatefulPartitionedCall/r2_net_1/rrfb_2_1/esa_2_1/mul", "StatefulPartitionedCall/r2_net_1/rrfb_3_1/conv2d_19_1/convolution/ReadVariableOp", "StatefulPartitionedCall/r2_net_1/rrfb_3_1/conv2d_19_1/Squeeze"], "device": "/device:CPU:0", "attr": {"num_args": {"i": "1"}, "data_format": {"s": "TkhXQw=="}, "use_cudnn_on_gpu": {"b": true}, "epsilon": {"f": 0.0}, "padding": {"s": "U0FNRQ=="}, "explicit_paddings": {"list": {}}, "T": {"type": "DT_FLOAT"}, "fused_ops": {"list": {"s": ["Qmlhc0FkZA==", "TGVha3lSZWx1"]}}, "strides": {"list": {"i": ["1", "1", "1", "1"]}}, "filter_format": {"s": "SFdJTw=="}, "num_host_args": {"i": "0"}, "_input_shapes": {"list": {"shape": [{"dim": [{"size": "-2"}, {"size": "-34"}, {"size": "-35"}, {"size": "48"}]}, {"dim": [{"size": "3"}, {"size": "3"}, {"size": "48"}, {"size": "48"}]}]}}, "TArgs": {"list": {"type": ["DT_FLOAT"]}}, "dilations": {"list": {"i": ["1", "1", "1", "1"]}}, "leakyrelu_alpha": {"f": 0.05}}}, {"name": "StatefulPartitionedCall/r2_net_1/rrfb_3_1/conv2d_20_1/BiasAdd", "op": "_FusedConv2D", "input": ["StatefulPartitionedCall/r2_net_1/rrfb_3_1/leaky_re_lu_3_1/LeakyRelu", "StatefulPartitionedCall/r2_net_1/rrfb_3_1/conv2d_20_1/convolution/ReadVariableOp", "StatefulPartitionedCall/r2_net_1/rrfb_3_1/conv2d_20_1/Squeeze"], "device": "/device:CPU:0", "attr": {"use_cudnn_on_gpu": {"b": true}, "explicit_paddings": {"list": {}}, "num_args": {"i": "1"}, "data_format": {"s": "TkhXQw=="}, "dilations": {"list": {"i": ["1", "1", "1", "1"]}}, "filter_format": {"s": "SFdJTw=="}, "fused_ops": {"list": {"s": ["Qmlhc0FkZA=="]}}, "TArgs": {"list": {"type": ["DT_FLOAT"]}}, "strides": {"list": {"i": ["1", "1", "1", "1"]}}, "num_host_args": {"i": "0"}, "leakyrelu_alpha": {"f": 0.2}, "T": {"type": "DT_FLOAT"}, "_input_shapes": {"list": {"shape": [{"dim": [{"size": "-2"}, {"size": "-34"}, {"size": "-35"}, {"size": "48"}]}, {"dim": [{"size": "3"}, {"size": "3"}, {"size": "48"}, {"size": "48"}]}]}}, "padding": {"s": "U0FNRQ=="}, "epsilon": {"f": 0.0}}}, {"name": "StatefulPartitionedCall/r2_net_1/rrfb_3_1/esa_3_1/Shape", "op": "Shape", "input": ["StatefulPartitionedCall/r2_net_1/rrfb_3_1/conv2d_20_1/BiasAdd"], "attr": {"out_type": {"type": "DT_INT32"}, "T": {"type": "DT_FLOAT"}}, "experimentalType": {"typeId": "TFT_PRODUCT", "args": [{"typeId": "TFT_SHAPE_TENSOR", "args": [{"typeId": "TFT_INT32"}]}]}}, {"name": "StatefulPartitionedCall/r2_net_1/rrfb_3_1/esa_3_1/Shape_1", "op": "Shape", "input": ["StatefulPartitionedCall/r2_net_1/rrfb_3_1/conv2d_20_1/BiasAdd"], "attr": {"T": {"type": "DT_FLOAT"}, "out_type": {"type": "DT_INT32"}}, "experimentalType": {"typeId": "TFT_PRODUCT", "args": [{"typeId": "TFT_SHAPE_TENSOR", "args": [{"typeId": "TFT_INT32"}]}]}}, {"name": "StatefulPartitionedCall/r2_net_1/rrfb_3_1/esa_3_1/conv2d_21_1/BiasAdd", "op": "_FusedConv2D", "input": ["StatefulPartitionedCall/r2_net_1/rrfb_3_1/conv2d_20_1/BiasAdd", "StatefulPartitionedCall/r2_net_1/rrfb_3_1/esa_3_1/conv2d_21_1/convolution/ReadVariableOp", "StatefulPartitionedCall/r2_net_1/rrfb_3_1/esa_3_1/conv2d_21_1/Squeeze"], "device": "/device:CPU:0", "attr": {"epsilon": {"f": 0.0}, "num_args": {"i": "1"}, "use_cudnn_on_gpu": {"b": true}, "dilations": {"list": {"i": ["1", "1", "1", "1"]}}, "T": {"type": "DT_FLOAT"}, "TArgs": {"list": {"type": ["DT_FLOAT"]}}, "leakyrelu_alpha": {"f": 0.2}, "strides": {"list": {"i": ["1", "1", "1", "1"]}}, "fused_ops": {"list": {"s": ["Qmlhc0FkZA=="]}}, "filter_format": {"s": "SFdJTw=="}, "_input_shapes": {"list": {"shape": [{"dim": [{"size": "-2"}, {"size": "-34"}, {"size": "-35"}, {"size": "48"}]}, {"dim": [{"size": "1"}, {"size": "1"}, {"size": "48"}, {"size": "16"}]}]}}, "num_host_args": {"i": "0"}, "explicit_paddings": {"list": {}}, "data_format": {"s": "TkhXQw=="}, "padding": {"s": "U0FNRQ=="}}}, {"name": "StatefulPartitionedCall/r2_net_1/rrfb_3_1/esa_3_1/strided_slice", "op": "StridedSlice", "input": ["StatefulPartitionedCall/r2_net_1/rrfb_3_1/esa_3_1/Shape", "StatefulPartitionedCall/r2_net_1/rrfb_3_1/esa_3_1/strided_slice/stack", "StatefulPartitionedCall/r2_net_1/rrfb_3_1/esa_3_1/strided_slice/stack_1", "StatefulPartitionedCall/r2_net_1/rrfb_3_1/esa_3_1/strided_slice/stack_2"], "attr": {"T": {"type": "DT_INT32"}, "ellipsis_mask": {"i": "0"}, "new_axis_mask": {"i": "0"}, "begin_mask": {"i": "0"}, "Index": {"type": "DT_INT32"}, "shrink_axis_mask": {"i": "1"}, "end_mask": {"i": "0"}}}, {"name": "StatefulPartitionedCall/r2_net_1/rrfb_3_1/esa_3_1/strided_slice_1", "op": "StridedSlice", "input": ["StatefulPartitionedCall/r2_net_1/rrfb_3_1/esa_3_1/Shape_1", "StatefulPartitionedCall/r2_net_1/rrfb_3_1/esa_3_1/strided_slice_1/stack", "StatefulPartitionedCall/r2_net_1/rrfb_3_1/esa_3_1/strided_slice_1/stack_1", "StatefulPartitionedCall/r2_net_1/rrfb_3_1/esa_3_1/strided_slice_1/stack_2"], "attr": {"ellipsis_mask": {"i": "0"}, "T": {"type": "DT_INT32"}, "begin_mask": {"i": "0"}, "new_axis_mask": {"i": "0"}, "shrink_axis_mask": {"i": "1"}, "Index": {"type": "DT_INT32"}, "end_mask": {"i": "0"}}}, {"name": "StatefulPartitionedCall/r2_net_1/rrfb_3_1/esa_3_1/conv2d_22_1/BiasAdd", "op": "_FusedConv2D", "input": ["StatefulPartitionedCall/r2_net_1/rrfb_3_1/esa_3_1/conv2d_21_1/BiasAdd", "StatefulPartitionedCall/r2_net_1/rrfb_3_1/esa_3_1/conv2d_22_1/convolution/ReadVariableOp", "StatefulPartitionedCall/r2_net_1/rrfb_3_1/esa_3_1/conv2d_22_1/Squeeze"], "device": "/device:CPU:0", "attr": {"filter_format": {"s": "SFdJTw=="}, "explicit_paddings": {"list": {}}, "_input_shapes": {"list": {"shape": [{"dim": [{"size": "-2"}, {"size": "-34"}, {"size": "-35"}, {"size": "16"}]}, {"dim": [{"size": "3"}, {"size": "3"}, {"size": "16"}, {"size": "16"}]}]}}, "use_cudnn_on_gpu": {"b": true}, "dilations": {"list": {"i": ["1", "1", "1", "1"]}}, "num_args": {"i": "1"}, "leakyrelu_alpha": {"f": 0.2}, "num_host_args": {"i": "0"}, "fused_ops": {"list": {"s": ["Qmlhc0FkZA=="]}}, "epsilon": {"f": 0.0}, "strides": {"list": {"i": ["1", "2", "2", "1"]}}, "TArgs": {"list": {"type": ["DT_FLOAT"]}}, "padding": {"s": "VkFMSUQ="}, "T": {"type": "DT_FLOAT"}, "data_format": {"s": "TkhXQw=="}}}, {"name": "StatefulPartitionedCall/r2_net_1/rrfb_3_1/esa_3_1/resize/size", "op": "Pack", "input": ["StatefulPartitionedCall/r2_net_1/rrfb_3_1/esa_3_1/strided_slice", "StatefulPartitionedCall/r2_net_1/rrfb_3_1/esa_3_1/strided_slice_1"], "attr": {"axis": {"i": "0"}, "T": {"type": "DT_INT32"}, "N": {"i": "2"}}}, {"name": "StatefulPartitionedCall/r2_net_1/rrfb_3_1/esa_3_1/MaxPool2d", "op": "MaxPool", "input": ["StatefulPartitionedCall/r2_net_1/rrfb_3_1/esa_3_1/conv2d_22_1/BiasAdd"], "attr": {"strides": {"list": {"i": ["1", "3", "3", "1"]}}, "ksize": {"list": {"i": ["1", "7", "7", "1"]}}, "T": {"type": "DT_FLOAT"}, "data_format": {"s": "TkhXQw=="}, "padding": {"s": "VkFMSUQ="}, "explicit_paddings": {"list": {}}}}, {"name": "StatefulPartitionedCall/r2_net_1/rrfb_3_1/esa_3_1/conv2d_23_1/BiasAdd", "op": "_FusedConv2D", "input": ["StatefulPartitionedCall/r2_net_1/rrfb_3_1/esa_3_1/MaxPool2d", "StatefulPartitionedCall/r2_net_1/rrfb_3_1/esa_3_1/conv2d_23_1/convolution/ReadVariableOp", "StatefulPartitionedCall/r2_net_1/rrfb_3_1/esa_3_1/conv2d_23_1/Squeeze"], "device": "/device:CPU:0", "attr": {"padding": {"s": "U0FNRQ=="}, "num_args": {"i": "1"}, "filter_format": {"s": "SFdJTw=="}, "explicit_paddings": {"list": {}}, "data_format": {"s": "TkhXQw=="}, "leakyrelu_alpha": {"f": 0.2}, "num_host_args": {"i": "0"}, "_input_shapes": {"list": {"shape": [{"dim": [{"size": "-2"}, {"size": "-38"}, {"size": "-39"}, {"size": "16"}]}, {"dim": [{"size": "3"}, {"size": "3"}, {"size": "16"}, {"size": "16"}]}]}}, "strides": {"list": {"i": ["1", "1", "1", "1"]}}, "T": {"type": "DT_FLOAT"}, "use_cudnn_on_gpu": {"b": true}, "dilations": {"list": {"i": ["1", "1", "1", "1"]}}, "TArgs": {"list": {"type": ["DT_FLOAT"]}}, "fused_ops": {"list": {"s": ["Qmlhc0FkZA=="]}}, "epsilon": {"f": 0.0}}}, {"name": "StatefulPartitionedCall/r2_net_1/rrfb_3_1/esa_3_1/resize/ResizeBilinear", "op": "ResizeBilinear", "input": ["StatefulPartitionedCall/r2_net_1/rrfb_3_1/esa_3_1/conv2d_23_1/BiasAdd", "StatefulPartitionedCall/r2_net_1/rrfb_3_1/esa_3_1/resize/size"], "attr": {"half_pixel_centers": {"b": true}, "T": {"type": "DT_FLOAT"}, "align_corners": {"b": false}}}, {"name": "StatefulPartitionedCall/r2_net_1/rrfb_3_1/esa_3_1/add", "op": "AddV2", "input": ["StatefulPartitionedCall/r2_net_1/rrfb_3_1/esa_3_1/resize/ResizeBilinear", "StatefulPartitionedCall/r2_net_1/rrfb_3_1/esa_3_1/conv2d_21_1/BiasAdd"], "attr": {"T": {"type": "DT_FLOAT"}}}, {"name": "StatefulPartitionedCall/r2_net_1/rrfb_3_1/esa_3_1/conv2d_24_1/BiasAdd", "op": "_FusedConv2D", "input": ["StatefulPartitionedCall/r2_net_1/rrfb_3_1/esa_3_1/add", "StatefulPartitionedCall/r2_net_1/rrfb_3_1/esa_3_1/conv2d_24_1/convolution/ReadVariableOp", "StatefulPartitionedCall/r2_net_1/rrfb_3_1/esa_3_1/conv2d_24_1/Squeeze"], "device": "/device:CPU:0", "attr": {"num_args": {"i": "1"}, "filter_format": {"s": "SFdJTw=="}, "leakyrelu_alpha": {"f": 0.2}, "num_host_args": {"i": "0"}, "dilations": {"list": {"i": ["1", "1", "1", "1"]}}, "_input_shapes": {"list": {"shape": [{"dim": [{"size": "-2"}, {"size": "-42"}, {"size": "-43"}, {"size": "16"}]}, {"dim": [{"size": "1"}, {"size": "1"}, {"size": "16"}, {"size": "48"}]}]}}, "T": {"type": "DT_FLOAT"}, "TArgs": {"list": {"type": ["DT_FLOAT"]}}, "data_format": {"s": "TkhXQw=="}, "epsilon": {"f": 0.0}, "fused_ops": {"list": {"s": ["Qmlhc0FkZA=="]}}, "strides": {"list": {"i": ["1", "1", "1", "1"]}}, "padding": {"s": "U0FNRQ=="}, "use_cudnn_on_gpu": {"b": true}, "explicit_paddings": {"list": {}}}}, {"name": "StatefulPartitionedCall/r2_net_1/rrfb_3_1/esa_3_1/Sigmoid", "op": "Sigmoid", "input": ["StatefulPartitionedCall/r2_net_1/rrfb_3_1/esa_3_1/conv2d_24_1/BiasAdd"], "attr": {"_input_shapes": {"list": {"shape": [{"dim": [{"size": "-2"}, {"size": "-42"}, {"size": "-43"}, {"size": "48"}]}]}}, "T": {"type": "DT_FLOAT"}}}, {"name": "StatefulPartitionedCall/r2_net_1/rrfb_3_1/esa_3_1/mul", "op": "Mul", "input": ["StatefulPartitionedCall/r2_net_1/rrfb_3_1/conv2d_20_1/BiasAdd", "StatefulPartitionedCall/r2_net_1/rrfb_3_1/esa_3_1/Sigmoid"], "attr": {"T": {"type": "DT_FLOAT"}}}, {"name": "StatefulPartitionedCall/r2_net_1/conv2d_25_1/BiasAdd", "op": "_FusedConv2D", "input": ["StatefulPartitionedCall/r2_net_1/rrfb_3_1/esa_3_1/mul", "StatefulPartitionedCall/r2_net_1/conv2d_25_1/convolution/ReadVariableOp", "StatefulPartitionedCall/r2_net_1/conv2d_25_1/Squeeze"], "device": "/device:CPU:0", "attr": {"fused_ops": {"list": {"s": ["Qmlhc0FkZA=="]}}, "data_format": {"s": "TkhXQw=="}, "TArgs": {"list": {"type": ["DT_FLOAT"]}}, "T": {"type": "DT_FLOAT"}, "padding": {"s": "U0FNRQ=="}, "_input_shapes": {"list": {"shape": [{"dim": [{"size": "-2"}, {"size": "-44"}, {"size": "-45"}, {"size": "48"}]}, {"dim": [{"size": "1"}, {"size": "1"}, {"size": "48"}, {"size": "48"}]}]}}, "num_args": {"i": "1"}, "use_cudnn_on_gpu": {"b": true}, "explicit_paddings": {"list": {}}, "filter_format": {"s": "SFdJTw=="}, "strides": {"list": {"i": ["1", "1", "1", "1"]}}, "epsilon": {"f": 0.0}, "leakyrelu_alpha": {"f": 0.2}, "dilations": {"list": {"i": ["1", "1", "1", "1"]}}, "num_host_args": {"i": "0"}}}, {"name": "StatefulPartitionedCall/r2_net_1/add", "op": "AddV2", "input": ["StatefulPartitionedCall/r2_net_1/conv2d_25_1/BiasAdd", "StatefulPartitionedCall/r2_net_1/conv2d_1/BiasAdd"], "attr": {"T": {"type": "DT_FLOAT"}}}, {"name": "StatefulPartitionedCall/r2_net_1/conv2d_26_1/BiasAdd", "op": "_FusedConv2D", "input": ["StatefulPartitionedCall/r2_net_1/add", "StatefulPartitionedCall/r2_net_1/conv2d_26_1/convolution/ReadVariableOp", "StatefulPartitionedCall/r2_net_1/conv2d_26_1/Squeeze"], "device": "/device:CPU:0", "attr": {"dilations": {"list": {"i": ["1", "1", "1", "1"]}}, "TArgs": {"list": {"type": ["DT_FLOAT"]}}, "explicit_paddings": {"list": {}}, "use_cudnn_on_gpu": {"b": true}, "epsilon": {"f": 0.0}, "data_format": {"s": "TkhXQw=="}, "leakyrelu_alpha": {"f": 0.2}, "num_host_args": {"i": "0"}, "T": {"type": "DT_FLOAT"}, "num_args": {"i": "1"}, "_input_shapes": {"list": {"shape": [{"dim": [{"size": "-2"}, {"size": "-46"}, {"size": "-47"}, {"size": "48"}]}, {"dim": [{"size": "3"}, {"size": "3"}, {"size": "48"}, {"size": "48"}]}]}}, "strides": {"list": {"i": ["1", "1", "1", "1"]}}, "padding": {"s": "U0FNRQ=="}, "fused_ops": {"list": {"s": ["Qmlhc0FkZA=="]}}, "filter_format": {"s": "SFdJTw=="}}}, {"name": "StatefulPartitionedCall/r2_net_1/DepthToSpace", "op": "DepthToSpace", "input": ["StatefulPartitionedCall/r2_net_1/conv2d_26_1/BiasAdd"], "attr": {"data_format": {"s": "TkhXQw=="}, "block_size": {"i": "4"}, "T": {"type": "DT_FLOAT"}}}, {"name": "Identity", "op": "Identity", "input": ["StatefulPartitionedCall/r2_net_1/DepthToSpace"], "attr": {"T": {"type": "DT_FLOAT"}}}], "library": {}, "versions": {"producer": 1994}}, "weightsManifest": [{"paths": ["group1-shard1of1.bin"], "weights": [{"name": "StatefulPartitionedCall/r2_net_1/rrfb_3_1/esa_3_1/conv2d_22_1/convolution/ReadVariableOp", "shape": [3, 3, 16, 16], "dtype": "float32"}, {"name": "StatefulPartitionedCall/r2_net_1/rrfb_3_1/esa_3_1/conv2d_22_1/Squeeze", "shape": [16], "dtype": "float32"}, {"name": "StatefulPartitionedCall/r2_net_1/rrfb_3_1/esa_3_1/conv2d_23_1/convolution/ReadVariableOp", "shape": [3, 3, 16, 16], "dtype": "float32"}, {"name": "StatefulPartitionedCall/r2_net_1/rrfb_3_1/esa_3_1/conv2d_23_1/Squeeze", "shape": [16], "dtype": "float32"}, {"name": "StatefulPartitionedCall/r2_net_1/rrfb_3_1/esa_3_1/strided_slice/stack", "shape": [1], "dtype": "int32"}, {"name": "StatefulPartitionedCall/r2_net_1/rrfb_3_1/esa_3_1/strided_slice/stack_1", "shape": [1], "dtype": "int32"}, {"name": "StatefulPartitionedCall/r2_net_1/rrfb_3_1/esa_3_1/strided_slice/stack_2", "shape": [1], "dtype": "int32"}, {"name": "StatefulPartitionedCall/r2_net_1/rrfb_3_1/esa_3_1/strided_slice_1/stack", "shape": [1], "dtype": "int32"}, {"name": "StatefulPartitionedCall/r2_net_1/rrfb_3_1/esa_3_1/strided_slice_1/stack_1", "shape": [1], "dtype": "int32"}, {"name": "StatefulPartitionedCall/r2_net_1/rrfb_3_1/esa_3_1/strided_slice_1/stack_2", "shape": [1], "dtype": "int32"}, {"name": "StatefulPartitionedCall/r2_net_1/rrfb_2_1/esa_2_1/conv2d_16_1/convolution/ReadVariableOp", "shape": [3, 3, 16, 16], "dtype": "float32"}, {"name": "StatefulPartitionedCall/r2_net_1/rrfb_2_1/esa_2_1/conv2d_16_1/Squeeze", "shape": [16], "dtype": "float32"}, {"name": "StatefulPartitionedCall/r2_net_1/rrfb_2_1/esa_2_1/conv2d_17_1/convolution/ReadVariableOp", "shape": [3, 3, 16, 16], "dtype": "float32"}, {"name": "StatefulPartitionedCall/r2_net_1/rrfb_2_1/esa_2_1/conv2d_17_1/Squeeze", "shape": [16], "dtype": "float32"}, {"name": "StatefulPartitionedCall/r2_net_1/rrfb_2_1/esa_2_1/strided_slice/stack", "shape": [1], "dtype": "int32"}, {"name": "StatefulPartitionedCall/r2_net_1/rrfb_2_1/esa_2_1/strided_slice/stack_1", "shape": [1], "dtype": "int32"}, {"name": "StatefulPartitionedCall/r2_net_1/rrfb_2_1/esa_2_1/strided_slice/stack_2", "shape": [1], "dtype": "int32"}, {"name": "StatefulPartitionedCall/r2_net_1/rrfb_2_1/esa_2_1/strided_slice_1/stack", "shape": [1], "dtype": "int32"}, {"name": "StatefulPartitionedCall/r2_net_1/rrfb_2_1/esa_2_1/strided_slice_1/stack_1", "shape": [1], "dtype": "int32"}, {"name": "StatefulPartitionedCall/r2_net_1/rrfb_2_1/esa_2_1/strided_slice_1/stack_2", "shape": [1], "dtype": "int32"}, {"name": "StatefulPartitionedCall/r2_net_1/rrfb_1_2/esa_1_1/conv2d_10_1/convolution/ReadVariableOp", "shape": [3, 3, 16, 16], "dtype": "float32"}, {"name": "StatefulPartitionedCall/r2_net_1/rrfb_1_2/esa_1_1/conv2d_10_1/Squeeze", "shape": [16], "dtype": "float32"}, {"name": "StatefulPartitionedCall/r2_net_1/rrfb_1_2/esa_1_1/conv2d_11_1/convolution/ReadVariableOp", "shape": [3, 3, 16, 16], "dtype": "float32"}, {"name": "StatefulPartitionedCall/r2_net_1/rrfb_1_2/esa_1_1/conv2d_11_1/Squeeze", "shape": [16], "dtype": "float32"}, {"name": "StatefulPartitionedCall/r2_net_1/rrfb_1_2/esa_1_1/strided_slice/stack", "shape": [1], "dtype": "int32"}, {"name": "StatefulPartitionedCall/r2_net_1/rrfb_1_2/esa_1_1/strided_slice/stack_1", "shape": [1], "dtype": "int32"}, {"name": "StatefulPartitionedCall/r2_net_1/rrfb_1_2/esa_1_1/strided_slice/stack_2", "shape": [1], "dtype": "int32"}, {"name": "StatefulPartitionedCall/r2_net_1/rrfb_1_2/esa_1_1/strided_slice_1/stack", "shape": [1], "dtype": "int32"}, {"name": "StatefulPartitionedCall/r2_net_1/rrfb_1_2/esa_1_1/strided_slice_1/stack_1", "shape": [1], "dtype": "int32"}, {"name": "StatefulPartitionedCall/r2_net_1/rrfb_1_2/esa_1_1/strided_slice_1/stack_2", "shape": [1], "dtype": "int32"}, {"name": "StatefulPartitionedCall/r2_net_1/rrfb_1/esa_1/conv2d_4_1/convolution/ReadVariableOp", "shape": [3, 3, 16, 16], "dtype": "float32"}, {"name": "StatefulPartitionedCall/r2_net_1/rrfb_1/esa_1/conv2d_4_1/Squeeze", "shape": [16], "dtype": "float32"}, {"name": "StatefulPartitionedCall/r2_net_1/rrfb_1/esa_1/conv2d_5_1/convolution/ReadVariableOp", "shape": [3, 3, 16, 16], "dtype": "float32"}, {"name": "StatefulPartitionedCall/r2_net_1/rrfb_1/esa_1/conv2d_5_1/Squeeze", "shape": [16], "dtype": "float32"}, {"name": "StatefulPartitionedCall/r2_net_1/rrfb_1/esa_1/strided_slice/stack", "shape": [1], "dtype": "int32"}, {"name": "StatefulPartitionedCall/r2_net_1/rrfb_1/esa_1/strided_slice/stack_1", "shape": [1], "dtype": "int32"}, {"name": "StatefulPartitionedCall/r2_net_1/rrfb_1/esa_1/strided_slice/stack_2", "shape": [1], "dtype": "int32"}, {"name": "StatefulPartitionedCall/r2_net_1/rrfb_1/esa_1/strided_slice_1/stack", "shape": [1], "dtype": "int32"}, {"name": "StatefulPartitionedCall/r2_net_1/rrfb_1/esa_1/strided_slice_1/stack_1", "shape": [1], "dtype": "int32"}, {"name": "StatefulPartitionedCall/r2_net_1/rrfb_1/esa_1/strided_slice_1/stack_2", "shape": [1], "dtype": "int32"}, {"name": "StatefulPartitionedCall/r2_net_1/rrfb_1/conv2d_1_1/convolution/ReadVariableOp", "shape": [3, 3, 48, 48], "dtype": "float32"}, {"name": "StatefulPartitionedCall/r2_net_1/rrfb_1/conv2d_1_1/Squeeze", "shape": [48], "dtype": "float32"}, {"name": "StatefulPartitionedCall/r2_net_1/rrfb_1/conv2d_2_1/convolution/ReadVariableOp", "shape": [3, 3, 48, 48], "dtype": "float32"}, {"name": "StatefulPartitionedCall/r2_net_1/rrfb_1/conv2d_2_1/Squeeze", "shape": [48], "dtype": "float32"}, {"name": "StatefulPartitionedCall/r2_net_1/rrfb_1/esa_1/conv2d_3_1/convolution/ReadVariableOp", "shape": [1, 1, 48, 16], "dtype": "float32"}, {"name": "StatefulPartitionedCall/r2_net_1/rrfb_1/esa_1/conv2d_3_1/Squeeze", "shape": [16], "dtype": "float32"}, {"name": "StatefulPartitionedCall/r2_net_1/rrfb_1/esa_1/conv2d_6_1/convolution/ReadVariableOp", "shape": [1, 1, 16, 48], "dtype": "float32"}, {"name": "StatefulPartitionedCall/r2_net_1/rrfb_1/esa_1/conv2d_6_1/Squeeze", "shape": [48], "dtype": "float32"}, {"name": "StatefulPartitionedCall/r2_net_1/rrfb_1_2/conv2d_7_1/convolution/ReadVariableOp", "shape": [3, 3, 48, 48], "dtype": "float32"}, {"name": "StatefulPartitionedCall/r2_net_1/rrfb_1_2/conv2d_7_1/Squeeze", "shape": [48], "dtype": "float32"}, {"name": "StatefulPartitionedCall/r2_net_1/rrfb_1_2/conv2d_8_1/convolution/ReadVariableOp", "shape": [3, 3, 48, 48], "dtype": "float32"}, {"name": "StatefulPartitionedCall/r2_net_1/rrfb_1_2/conv2d_8_1/Squeeze", "shape": [48], "dtype": "float32"}, {"name": "StatefulPartitionedCall/r2_net_1/rrfb_1_2/esa_1_1/conv2d_9_1/convolution/ReadVariableOp", "shape": [1, 1, 48, 16], "dtype": "float32"}, {"name": "StatefulPartitionedCall/r2_net_1/rrfb_1_2/esa_1_1/conv2d_9_1/Squeeze", "shape": [16], "dtype": "float32"}, {"name": "StatefulPartitionedCall/r2_net_1/rrfb_1_2/esa_1_1/conv2d_12_1/convolution/ReadVariableOp", "shape": [1, 1, 16, 48], "dtype": "float32"}, {"name": "StatefulPartitionedCall/r2_net_1/rrfb_1_2/esa_1_1/conv2d_12_1/Squeeze", "shape": [48], "dtype": "float32"}, {"name": "StatefulPartitionedCall/r2_net_1/rrfb_2_1/conv2d_13_1/convolution/ReadVariableOp", "shape": [3, 3, 48, 48], "dtype": "float32"}, {"name": "StatefulPartitionedCall/r2_net_1/rrfb_2_1/conv2d_13_1/Squeeze", "shape": [48], "dtype": "float32"}, {"name": "StatefulPartitionedCall/r2_net_1/rrfb_2_1/conv2d_14_1/convolution/ReadVariableOp", "shape": [3, 3, 48, 48], "dtype": "float32"}, {"name": "StatefulPartitionedCall/r2_net_1/rrfb_2_1/conv2d_14_1/Squeeze", "shape": [48], "dtype": "float32"}, {"name": "StatefulPartitionedCall/r2_net_1/rrfb_2_1/esa_2_1/conv2d_15_1/convolution/ReadVariableOp", "shape": [1, 1, 48, 16], "dtype": "float32"}, {"name": "StatefulPartitionedCall/r2_net_1/rrfb_2_1/esa_2_1/conv2d_15_1/Squeeze", "shape": [16], "dtype": "float32"}, {"name": "StatefulPartitionedCall/r2_net_1/rrfb_2_1/esa_2_1/conv2d_18_1/convolution/ReadVariableOp", "shape": [1, 1, 16, 48], "dtype": "float32"}, {"name": "StatefulPartitionedCall/r2_net_1/rrfb_2_1/esa_2_1/conv2d_18_1/Squeeze", "shape": [48], "dtype": "float32"}, {"name": "StatefulPartitionedCall/r2_net_1/rrfb_3_1/conv2d_19_1/convolution/ReadVariableOp", "shape": [3, 3, 48, 48], "dtype": "float32"}, {"name": "StatefulPartitionedCall/r2_net_1/rrfb_3_1/conv2d_19_1/Squeeze", "shape": [48], "dtype": "float32"}, {"name": "StatefulPartitionedCall/r2_net_1/rrfb_3_1/conv2d_20_1/convolution/ReadVariableOp", "shape": [3, 3, 48, 48], "dtype": "float32"}, {"name": "StatefulPartitionedCall/r2_net_1/rrfb_3_1/conv2d_20_1/Squeeze", "shape": [48], "dtype": "float32"}, {"name": "StatefulPartitionedCall/r2_net_1/rrfb_3_1/esa_3_1/conv2d_21_1/convolution/ReadVariableOp", "shape": [1, 1, 48, 16], "dtype": "float32"}, {"name": "StatefulPartitionedCall/r2_net_1/rrfb_3_1/esa_3_1/conv2d_21_1/Squeeze", "shape": [16], "dtype": "float32"}, {"name": "StatefulPartitionedCall/r2_net_1/rrfb_3_1/esa_3_1/conv2d_24_1/convolution/ReadVariableOp", "shape": [1, 1, 16, 48], "dtype": "float32"}, {"name": "StatefulPartitionedCall/r2_net_1/rrfb_3_1/esa_3_1/conv2d_24_1/Squeeze", "shape": [48], "dtype": "float32"}, {"name": "StatefulPartitionedCall/r2_net_1/conv2d_25_1/convolution/ReadVariableOp", "shape": [1, 1, 48, 48], "dtype": "float32"}, {"name": "StatefulPartitionedCall/r2_net_1/conv2d_25_1/Squeeze", "shape": [48], "dtype": "float32"}, {"name": "StatefulPartitionedCall/r2_net_1/conv2d_1/convolution/ReadVariableOp", "shape": [3, 3, 3, 48], "dtype": "float32"}, {"name": "StatefulPartitionedCall/r2_net_1/conv2d_1/Squeeze", "shape": [48], "dtype": "float32"}, {"name": "StatefulPartitionedCall/r2_net_1/conv2d_26_1/convolution/ReadVariableOp", "shape": [3, 3, 48, 48], "dtype": "float32"}, {"name": "StatefulPartitionedCall/r2_net_1/conv2d_26_1/Squeeze", "shape": [48], "dtype": "float32"}]}]}